src/models/pizza_steak_sushi.pth.pt (torch, 399489 bytes, 26 tensors)

block_1.0.weight f4 [10, 3, 3, 3]
000000 77 89 11 be e7 75 55 3e f4 93 81 bd 73 06 8b 3d
       -0.14212595 0.20845757 -0.06327048 0.067883395
000010 74 e7 3b bd 2f 74 91 bd 49 c2 2a be a6 7b 5e be
       -0.045875028 -0.071022384 -0.16675676 -0.21726856
000020 e7 66 7c 3c cf 91 eb bc 05 7e de bd f0 ea b3 bd
       0.015405393 -0.02875605 -0.1086388 -0.08785045
000030 3f 2e 4d 3e 2f e6 e7 3d db e7 c0 3d a4 d5 25 3e
       0.20037173 0.11323201 0.09419223 0.16194779
000040 c0 89 a1 bd 4b c1 96 bd 9e 19 3d bd 89 15 67 bc
       -0.07887602 -0.073610865 -0.04616701 -0.0141042555
000050 12 c1 c4 3d 21 0d d2 bd ee 23 7e 3d 76 84 48 be
       0.09607138 -0.102564104 0.062045984 -0.1958178
000060 d0 2d 01 3e b3 d3 0d be 87 7c 14 3e 39 6d e3 bc
       0.12615132 -0.13850288 0.14500628 -0.027762042
000070 c0 05 f4 3c 64 f1 e7 3d 93 4b 48 3e 2f a5 05 bd
       0.029787898 0.113253385 0.1956008 -0.032628234
000080 99 6b f7 3c 6a 8d cb bd b0 64 ea bd 9a aa 98 bc
       0.030202674 -0.09939082 -0.11444986 -0.018636037
000090 a4 e1 cc bd dd cb 93 3d a7 e4 ad 3c 2a 0c b0 bd
       -0.10003975 0.07216618 0.021227194 -0.0859607
0000a0 df 0f b9 bd 97 d9 e9 bd 71 62 a7 bd 01 73 0b be
       -0.0903623 -0.11418455 -0.08173073 -0.1361809
0000b0 50 41 5b bd f2 17 44 3e 7c ce 0f bd 75 f5 1d 3e
       -0.053529084 0.1914976 -0.03510903 0.15425666
0000c0 db 94 73 bd 2f bb 1b be be f7 21 3e 60 cb 08 3e
       -0.05946813 -0.15208124 0.15817162 0.13358831
0000d0 e4 4b a2 3d c1 21 eb bd c0 85 3a 3d 50 c1 34 3d
       0.07924631 -0.114810474 0.04553771 0.04412967
0000e0 e5 e8 04 be 52 fa 09 3e 70 59 97 3d 76 88 a3 3d
       -0.12979467 0.13474396 0.07390106 0.07985012
0000f0 ee e3 39 3e ec 5c e6 bd ce f6 a6 bb 32 7f 28 3e
       0.18153355 -0.11248192 -0.0050953394 0.16454771
000100 b2 a8 9f 3d f7 4a d1 3d ca f8 b5 bc cf e1 b3 3d
       0.07795848 0.102193765 -0.022213358 0.08783304
000110 f8 fa 2d 3e c7 1d d6 bd e0 c9 29 be 03 89 2f be
       0.16990268 -0.10454898 -0.16580915 -0.1714211
000120 5a 3b 0a 3e ff 37 b1 bd ee 9c f5 3d 8b ee 9c bd
       0.13499203 -0.086532585 0.119928226 -0.07662686
000130 b0 8a eb 3d 6f 67 7b 3d 3e 8d a7 bd 84 0b ad 3d
       0.11501062 0.06137794 -0.08181237 0.08449462
000140 98 7c 74 bd 24 63 38 3e 4a 9e 14 be 7a 4c 41 3e
       -0.059689134 0.18006569 -0.14513507 0.1887683
000150 7d cb 29 be ae 1b a7 3d 40 09 15 bc f7 1a 4a be
       -0.16581531 0.08159576 -0.009096444 -0.19736849
000160 c6 b2 6d bc 8b 7a 2c be d9 26 c4 bd 61 a2 f6 3d
       -0.014507955 -0.16843621 -0.09577722 0.1204269
000170 f5 71 1c 3e b7 83 33 3e 7a 11 96 bd ae 81 1d 3e
       0.15277846 0.17530714 -0.07327552 0.153815
000180 38 27 f0 bd 19 fb e1 bd 55 1d 9f bd ca 8a 05 bd
       -0.117262304 -0.11034221 -0.077692665 -0.032603063
000190 ec 20 fb bd f6 ea fd 3d cb 91 25 3e af ce 80 3d
       -0.12262139 0.12398331 0.16168897 0.06289422
0001a0 58 9d 2c 3d f3 29 d0 bd 9f 91 0e 3e d9 f5 86 3d
       0.042142242 -0.10164251 0.13922738 0.065898605
0001b0 7a 31 9b bd 44 38 c5 bc bd cf b5 3c aa 53 f6 bd
       -0.07577796 -0.024074681 0.022193784 -0.120276764
0001c0 e1 18 24 be 53 35 bd 3c 4c 80 25 be 3d bb da 3d
       -0.16025116 0.023096716 -0.16162223 0.10680244
0001d0 ce 34 20 be ef d4 23 3e a6 9c 9b bd 0f 28 31 3e
       -0.15645143 0.15999196 -0.07598238 0.17300437
0001e0 9a c0 f9 bd 2c 02 9e bd 26 c2 23 be d5 22 26 be
       -0.12194939 -0.07715258 -0.1599203 -0.16224225
0001f0 bd 8e 28 3e 80 e6 84 3d 77 52 f8 3c 55 ff b2 3d
       0.164607 0.06489277 0.03031276 0.08740107
000200 d8 fb 60 3e b5 68 16 bd f1 4e 07 bd 8b 12 88 3d
       0.21971071 -0.03672095 -0.03303427 0.06644162
000210 55 47 a8 bd 31 6e e3 3d 6c ce 03 3e b2 bb 1f be
       -0.082167305 0.11105002 0.12871712 -0.15598944
000220 38 00 55 3e 2c 69 27 be 7f 4e e8 3d 8b e7 f8 3c
       0.20800865 -0.16348714 0.11343097 0.030383846
000230 7c 6c b7 3c cb 76 9f bd dc 5d 02 bd 3c a5 09 3d
       0.022390597 -0.0778633 -0.031827793 0.033604845
000240 2d df 08 3d c2 4c 60 3c c8 f5 83 bd 97 8b 67 be
       0.033415962 0.0136901755 -0.064433634 -0.22611843
000250 a6 af a4 bc ab f4 83 bd a6 79 04 be e7 35 b4 3d
       -0.020103287 -0.06443151 -0.1293703 0.087993436
000260 90 8b 42 bd 62 d7 32 3e 9d f0 fd bc 5d 00 0b be
       -0.04749638 0.17464975 -0.030998522 -0.13574357
000270 83 94 6b bd 9e 54 f3 bc 78 6d 08 be 4c 3f ba bb
       -0.05751468 -0.029703435 -0.13323009 -0.005683815
000280 6a 89 c4 3d 98 df c7 3d 76 3c 8e 3d 1f 1b e1 bd
       0.09596522 0.09759444 0.06945126 -0.10991501
000290 53 02 43 3d 88 2e 58 bd 4e 9c cd bd 3b 5e 11 be
       0.04760964 -0.05277875 -0.100395784 -0.14196102
0002a0 a4 e4 0f 3e f3 27 82 bd c5 ed 39 3e be 72 a7 bc
       0.14052063 -0.06355276 0.18157108 -0.020440456
0002b0 e6 fd 0a be 2f fb 31 be c0 7b 4e be 16 b6 b0 3d
       -0.13573417 -0.17380975 -0.20164394 0.0862848
0002c0 ad 87 60 be 64 fc 9e 3d db 7e 99 3c 64 69 8d 3c
       -0.21926756 0.077629834 0.018737247 0.017262168
0002d0 7c 5f 34 3d d9 08 96 3d d6 57 fc 3c 20 d3 fc 3d
       0.044036373 0.07325906 0.030803602 0.123449564
0002e0 b9 fd ca bd 97 60 0e 3e cf f1 3a be 34 3f d1 3d
       -0.09911675 0.13904034 -0.18256305 0.10217133
0002f0 e4 25 f8 bd 72 45 a6 bd 11 56 05 be 14 b9 44 3e
       -0.12116602 -0.081187144 -0.13021113 0.19211227
000300 bb db 38 3e bb 2e 1b 3d e1 f9 06 3d 0f cf 9c bd
       0.1805257 0.037886363 0.032953147 -0.07656681
000310 58 2c 15 3e 1c 51 90 3d 5c c3 1e be ad 8a e9 3d
       0.14567697 0.070467204 -0.15504211 0.114034034
000320 78 cb 43 be 8f 0b 25 3d 45 7b 54 be 04 2c 12 be
       -0.19120586 0.040294226 -0.20750149 -0.14274603
000330 61 d6 12 be 97 47 ce 3d 76 f1 97 bd 0c 46 ca 3d
       -0.14339592 0.100722484 -0.07419102 0.09876642
000340 f2 36 18 3e 4d 2d 74 bd 3c 4e 9b bd a0 da e1 3d
       0.1486471 -0.059613515 -0.075832814 0.110280275
000350 8a 12 c6 3d 79 fa 2a be d8 e7 5e 3c b8 82 09 3e
       0.09671505 -0.1669711 0.013605081 0.13428771
000360 34 6d b1 bd 0c ef a1 bd 44 de 59 bb f5 48 0f be
       -0.08663407 -0.07906923 -0.0033244053 -0.13992675
000370 e2 18 89 3d 1d ff 5c 3d 6f 3a 22 3d 7f 59 91 3d
       0.06694199 0.053954232 0.039606508 0.07097148
000380 fd a1 07 be 0f fa a4 bd a9 73 99 bd 20 b7 91 3b
       -0.13245387 -0.080555074 -0.074927635 0.004446879
000390 f0 59 a7 bd 59 85 74 3d fd 4f 3e 3d fd 79 1c 3e
       -0.08171451 0.059697483 0.046463 0.1528091
0003a0 f2 60 c9 3d 0d eb 33 bd fe 34 68 3d 91 88 fc 3d
       0.09832944 -0.043925334 0.056691162 0.123307355
0003b0 01 3b 69 be 98 69 3c be 6d c6 15 bd 5e 39 b0 3d
       -0.22776414 -0.18399656 -0.036566187 0.08604692
0003c0 8a f2 31 bb ba 25 4a be 60 28 1e 3d c9 95 51 3d
       -0.0027152621 -0.19740954 0.038612723 0.051168237
0003d0 08 b3 29 3e 38 b5 01 3e c1 9f 04 3d 2a 66 76 bd
       0.16572201 0.12666786 0.032378916 -0.060156025
0003e0 b7 dd d1 bc 2a 19 14 3e 75 10 23 bc 25 73 1e 3e
       -0.025618417 0.14462724 -0.009952654 0.15473612
0003f0 dd f5 26 bd 50 76 18 3e bd 22 29 be 3d 52 14 be
       -0.040761817 0.14888883 -0.16517158 -0.14484496

block_1.0.bias f4 [10]
000000 3c d8 10 be 26 27 02 bd f3 40 22 be 1b b3 62 be
       -0.14144987 -0.031775616 -0.15845089 -0.22138636
000010 b0 ef 21 be a7 3c 3b 3e 20 61 25 bc fa 07 3d bd
       -0.1581409 0.18284856 -0.010093957 -0.046150185
000020 3d a5 56 bd d1 83 01 be
       -0.052403677 -0.1264794

block_1.1.weight f4 [10]
000000 0c fa 77 3f bb 53 7a 3f 33 76 82 3f 56 f8 82 3f
       0.96865916 0.9778401 1.0192322 1.0232036
000010 5c db 81 3f 50 1e 7b 3f 84 ce 7b 3f 52 79 81 3f
       1.0145068 0.9809313 0.9836199 1.0115149
000020 9c 84 80 3f 6d 55 80 3f
       1.0040469 1.002607

block_1.1.bias f4 [10]
000000 58 cc 8b bc 7d a2 a6 3c c6 3c 74 bb 29 41 38 bd
       -0.017065212 0.020341152 -0.003726767 -0.044984017
000010 e8 d0 2e bd d3 dc 74 bc 65 46 26 bc 17 e2 6e bd
       -0.042679697 -0.014945227 -0.010148619 -0.058321085
000020 7b dc fc bc 8d 50 1f bd
       -0.030866852 -0.03889518

block_1.1.running_mean f4 [10]
000000 43 6d 5c be 6a 3b ac bc e5 99 85 be 1e 73 d6 be
       -0.21526055 -0.021024425 -0.26093975 -0.41884702
000010 68 e8 ce be 40 2c 9a 3e 11 f5 cd 3d ae 31 d3 3c
       -0.40411687 0.30111885 0.10056508 0.025780525
000020 1a a8 77 3d e3 c9 88 3e
       0.06046305 0.26716527

block_1.1.running_var f4 [10]
000000 7e 93 c2 3d fa 81 01 3e 85 03 19 3f d7 da 3d 3e
       0.09500788 0.12647238 0.59770995 0.18540512
000010 79 10 94 3e 68 77 a3 3e 28 ae be 3e f9 62 82 3d
       0.28918818 0.31927037 0.37242246 0.06366534
000020 74 49 89 3e ed 9e fd 3e
       0.26813853 0.49535313

block_1.3.weight f4 [10, 10, 3, 3]
000000 38 59 6c bc a8 88 2c bd 0e 0c 1d 3d f9 fa a8 3d
       -0.014425568 -0.042122513 0.038341574 0.08250994
000010 da f9 82 bd 96 55 9e bd 0a ce c6 3d ea fd 3d bc
       -0.06395312 -0.07731168 0.097072676 -0.011596182
000020 80 3d aa 3d 66 bd bc 3d 43 5a a4 3d cf 49 c2 3b
       0.083125114 0.092158124 0.080250286 0.005929209
000030 5b 30 bf 3d d3 cf 1c bd 9e b6 40 3c 01 1f b2 3d
       0.09335395 -0.038284134 0.011762289 0.0869732
000040 83 31 ad bd 26 bd cb bb 59 b1 91 3c 71 7c 28 bd
       -0.08456709 -0.0062176166 0.017784761 -0.0411343
000050 02 f1 66 3d c2 b2 8b 3d 2d 60 c8 bc e8 dc c6 3c
       0.056382187 0.06821205 -0.024459923 0.024275258
000060 f8 aa e7 bd 65 2b 9c bd f7 ec 88 bb 3f 73 4b bd
       -0.113119066 -0.07625464 -0.004178639 -0.049670454
000070 a9 96 e2 bb 2e 7e 4d 3d ca 69 00 3e 60 8e e7 3d
       -0.0069149327 0.050169162 0.12540355 0.11306453
000080 72 17 cd 3d 1e 57 44 bd d9 fe 9a bd 87 b4 d7 3d
       0.100142375 -0.047934644 -0.075681396 0.1053248
000090 09 78 c0 3d 02 ff b3 3c db 8c 1a 3d c7 09 34 3b
       0.09397895 0.021972183 0.037731986 0.0027471648
0000a0 b0 aa 21 3d 60 4d dd 3d 8d a0 12 3e 35 36 03 3e
       0.03946942 0.10805774 0.14319058 0.12813647
0000b0 c3 af 1f bc 73 16 d7 3d af 90 a8 bb ce 40 4f bd
       -0.009746495 0.10502329 -0.0051442008 -0.050598912
0000c0 d3 d7 25 bd 15 fe 00 bd f6 ef 8d bc 75 8e 54 bd
       -0.04048903 -0.03149231 -0.017326336 -0.05189367
0000d0 3c 1b c5 bd e1 3d 9a bd c5 2f 72 3d c1 93 be 3d
       -0.09624335 -0.07531334 0.059127588 0.093055256
0000e0 66 ed 68 bd 1b 5f 44 bc e0 3c 3b bd 7c 23 df 3c
       -0.056867026 -0.011985566 -0.04571235 0.0272386
0000f0 e1 f4 b9 bd 98 9c 98 3d 27 08 e1 bd 77 94 00 bd
       -0.0907991 0.07451743 -0.10987883 -0.031391587
000100 2c 84 9a 3c 48 2a 4c bd ad 6b 52 3d 3d b2 0a 3d
       0.018861853 -0.04984501 0.05137222 0.033861388
000110 33 e9 73 bb d1 89 36 bd 16 e6 3a bc 74 9b 18 3d
       -0.0037217855 -0.044565026 -0.011407396 0.037257627
000120 b0 6c c4 bd cf 12 22 bb 5a 98 a5 bd 2f 44 20 bc
       -0.09591043 -0.002473045 -0.080856994 -0.009781881
000130 d1 41 93 3d 87 34 46 bb 91 e4 20 bd bd 5d 51 bd
       0.07190288 -0.003024371 -0.039280478 -0.051114786
000140 b3 81 13 bb 8a 3e 9f bd a4 d6 d0 bc 3d e1 af bd
       -0.0022507727 -0.077756 -0.025492974 -0.08587883
000150 ac 56 26 3d cf ca 83 3d d1 1c 19 bd 74 9e 35 3d
       0.04061 0.06435167 -0.037380997 0.044340566
000160 b9 8d 87 3c 1e 6e d1 3a bc 0c ed 3d ca e2 8a 3d
       0.01654707 0.0015978252 0.115746945 0.06781538
000170 20 6c f8 3d 3f f2 66 bd 02 28 21 bd 46 75 84 bd
       0.12129998 -0.056383368 -0.039344795 -0.06467681
000180 74 d8 9f bd db 8d b4 bd db 70 02 3d 2f f0 ad 3d
       -0.07804957 -0.08816119 0.03184591 0.08493077
000190 a3 d5 81 3d 8c df 9c 3d 5d 4e a5 3d 60 94 7d 3d
       0.06339576 0.07659826 0.08071587 0.06190908
0001a0 e7 52 5b bd 2e 15 7e 3d 26 44 a9 bd cc 3b d8 3d
       -0.05354586 0.062031917 -0.082649514 0.1055828
0001b0 b5 57 12 bd 24 ee 83 3c cd 0b 41 3d 38 de e0 3d
       -0.035728175 0.016104765 0.047130395 0.10979885
0001c0 ec 46 20 3d 0b 7e ca bd 85 10 11 3d 59 71 d4 3c
       0.039130136 -0.09887322 0.035416145 0.025932955
0001d0 d2 42 7f 3b 70 dc 96 bd 34 1f bf bd c8 14 01 be
       0.003894974 -0.07366264 -0.093321234 -0.12605584
0001e0 95 b3 b9 3c 36 38 37 3c e5 28 e5 bd a4 3e c2 bd
       0.02266864 0.011182835 -0.11189441 -0.09484604
0001f0 49 38 a4 bc 12 f3 8d 3d 2c f2 89 bd da 3f 18 bd
       -0.02004637 0.069311276 -0.06735644 -0.03717027
000200 fe c7 d4 3c 8a ae a0 3d 17 54 65 bb 06 ec 7a bc
       0.02597427 0.07845791 -0.0034992748 -0.015315061
000210 71 3b b2 bd a2 d1 b3 3b bc 1c 96 3d fa 59 a3 3c
       -0.08702744 0.0054876367 0.073296994 0.019940365
000220 c7 0e 6c bd 4b ac af 3d 49 35 bf bd 9e 69 45 bd
       -0.05763128 0.08577784 -0.09336335 -0.048196428
000230 1c 36 27 bc 9b 8f a6 bd 55 60 c8 3b 43 7d ff 3c
       -0.010205772 -0.08132859 0.0061149993 0.03118766
000240 f9 20 a2 3c f6 7e 30 bd cd 44 f0 3d fc 36 d3 3d
       0.019791113 -0.04308983 0.11731873 0.10313222
000250 81 c5 d2 3d c6 81 b7 3d 2b 9e 68 3d fd b7 0f 3e
       0.10291577 0.08960299 0.056791466 0.1403503
000260 d3 96 06 3c 62 de c0 3d b6 13 94 3c ef e0 6b bd
       0.00821467 0.09417416 0.018075805 -0.05758756
000270 6f fb 5a bd 18 7a f6 bc b9 62 9b 3d ec 88 0c bd
       -0.053462442 -0.030087516 0.07587189 -0.034310266
000280 b6 17 9e bd 51 2d d3 bd ad a2 f8 3d 9a 86 fa bc
       -0.07719366 -0.10311378 0.12140403 -0.030581761
000290 32 54 b8 3d 86 fb 07 3e ff ca 8f bc 37 21 03 bd
       0.09000434 0.13279542 -0.01755285 -0.032014098
0002a0 3b aa 60 bd 8d 1c b1 3b 06 f6 0c 3e d3 8b 49 bd
       -0.054849844 0.005405015 0.13765725 -0.049205612
0002b0 a0 14 a0 bd 17 92 b7 bd 16 92 84 bd 68 57 99 3c
       -0.07816434 -0.08963411 -0.06473176 0.018718436
0002c0 4a f5 61 bc 48 37 74 bd 19 32 89 3d b1 5b 10 bd
       -0.013791392 -0.059623033 0.066990085 -0.035243694
0002d0 5f dc c6 3c 83 17 6c bd fe da 9c 3d 4c 3b a1 3d
       0.024275003 -0.05763961 0.07658957 0.07872638
0002e0 8d 68 53 bb c7 ee af 3d 5c 60 a2 3d d0 ff c0 bd
       -0.0032258362 0.08590465 0.07928535 -0.09423792
0002f0 ff e1 11 bd 49 a0 8a 3d 0e 35 15 3b b9 a1 2d bd
       -0.035615917 0.06768853 0.0022767219 -0.04239056
000300 e6 e3 bd 3c d0 69 c6 3d 8d bd 26 3c f7 0e f2 3c
       0.02317996 0.09688151 0.010177028 0.029548151
000310 d0 3d 5d 3d 5d 33 56 3d d9 9a 0a 3d 93 a8 8c bd
       0.054014027 0.052295078 0.03383908 -0.068680905
000320 42 ea 88 bb 35 ef 09 bd ff ad db bd 20 0e 56 3d
       -0.0041783163 -0.03367539 -0.107265465 0.052259564
000330 77 63 77 bd 7b b0 b0 bd 37 de 98 3b 55 bb 01 3d
       -0.06039759 -0.08627411 0.004665162 0.031672794
000340 27 bd 0b 3d 02 ad b8 3d 6b 16 b7 3d 79 00 1f bc
       0.034115937 0.090173736 0.08939823 -0.0097047025
000350 14 31 a9 3d db b5 49 3c 1b fd 5b bd ac 91 44 3d
       0.08261314 0.012311424 -0.053708177 0.047990486
000360 e0 c5 15 3d 55 ee d5 b9 7f d5 ca bd 83 39 00 3d
       0.03656566 -0.00040804097 -0.099040024 0.031304847
000370 fe 8a 9e 3c 0b 6e 5b bd 47 30 a7 bd df ff 99 bc
       0.019353386 -0.053571742 -0.08163505 -0.018798767
000380 f0 6e a9 bd 0a e6 8d bd 9b da a3 3d 5e c6 a0 3c
       -0.08273113 -0.06928642 0.0800068 0.019625839
000390 67 18 ce bd 95 d3 9b 3d e2 84 94 bd 4a c5 8a bb
       -0.10063248 0.076087154 -0.07251908 -0.0042349445
0003a0 21 b9 74 bc e6 c3 84 3c 6f 30 92 3d 0a 73 e1 3b
       -0.014936716 0.016206693 0.07138144 0.006880169
0003b0 1f 51 95 3d 19 32 6d 3c bb 38 af 3d 45 bf 71 bd
       0.07290863 0.014477276 0.08555742 -0.0590203
0003c0 4f b0 ba bd 55 50 bb bd cf 39 69 bd cf ba 04 3d
       -0.091156594 -0.091461815 -0.056939896 0.032404717
0003d0 60 60 95 3d cc 32 21 3d 2a 8a c2 3d be 24 c9 3d
       0.07293773 0.039355084 0.09499009 0.09821461
0003e0 61 26 49 3d 26 a4 e4 3d db 66 7e bb 87 8d e0 3d
       0.049108867 0.11164121 -0.003881863 0.10964494
0003f0 2b 89 59 bd 7c f3 2c 3d bb f2 82 3d f0 8e ab 3c
       -0.05310933 0.042224392 0.063939534 0.020942181

block_1.3.bias f4 [10]
000000 19 8c ba bd 17 0b eb 3d e7 b0 0b bd 3c 61 dc bc
       -0.09108753 0.114767246 -0.034104254 -0.026901834
000010 a3 9f 58 3d 56 91 4c bc 98 8c 00 3d 34 7e 99 3d
       0.052886616 -0.012485823 0.03138408 0.074947745
000020 f5 31 11 3c 44 c8 6d 3d
       0.008862008 0.058052316

block_1.4.weight f4 [10]
000000 67 30 80 3f 4b a6 70 3f 38 dd 83 3f 2c e5 84 3f
       1.0014771 0.9400374 1.0301886 1.0382438
000010 7f 11 79 3f 6d 3e 7e 3f 56 81 83 3f 69 28 79 3f
       0.9729232 0.99314004 1.0273845 0.97327286
000020 14 ae 7a 3f be f4 7e 3f
       0.9792187 0.99592197

block_1.4.bias f4 [10]
000000 e0 d8 25 be a4 95 b3 bd f7 f8 43 3c 2e 02 6b bd
       -0.16196012 -0.08768776 0.011961213 -0.057375126
000010 82 a7 1e bd c0 2a cf bc de 52 a8 bd 1c 37 05 bb
       -0.038733967 -0.02528894 -0.08218931 -0.0020327037
000020 2b 7b 69 3c 08 9f 07 bd
       0.014250557 -0.03311065

block_1.4.running_mean f4 [10]
000000 e8 07 b4 3d 8f f9 ad 3e 00 5e a6 3e 98 96 14 3f
       0.087905705 0.3397946 0.3249359 0.5804229
000010 66 74 27 3d 12 5d 13 3d f2 ee 2c 3f 1f b7 09 3f
       0.04088249 0.03597743 0.675521 0.53795046
000020 59 05 88 bc f8 40 ef 3e
       -0.016604112 0.46729255

block_1.4.running_var f4 [10]
000000 ee 52 5e 3e 7b a9 a9 3e c3 e0 ab 3e 83 55 dd 3e
       0.21711323 0.33137116 0.33569917 0.43229303
000010 f0 2b ea 3d 67 0d 78 3e 60 72 b8 3e 82 39 9a 3e
       0.11434162 0.24223863 0.3602476 0.30122
000020 68 49 bb 3e 61 1d 81 3e
       0.36579442 0.25217727

block_2.0.weight f4 [10, 10, 3, 3]
000000 8d 66 65 3d 87 ef 50 3d c8 97 8d bd 00 9d d0 bd
       0.056006003 0.05100968 -0.069137156 -0.101861954
000010 b7 b6 8d 3c 1d 55 a7 3d 41 c8 ff 3d 57 ec b8 3d
       0.01729904 0.08170531 0.12489367 0.09029453
000020 7a 54 02 bd 54 9f 0d bd bd 11 bd 3d 73 11 87 3b
       -0.031818844 -0.034575775 0.09231899 0.004121953
000030 d4 82 ac bd 58 48 b0 3d b8 4c 4d bd 76 0c 69 bd
       -0.08423391 0.086075485 -0.050121993 -0.05689665
000040 96 ca 9d bd 85 a7 d1 bd ea dc 7f 3d a9 01 fa 3c
       -0.07704656 -0.1023703 0.06246654 0.03051837
000050 4e bb 7f bd d1 72 5a 3d 06 c8 d9 bd b3 af 99 bd
       -0.062434487 0.053332154 -0.106338546 -0.07504215
000060 10 c8 44 bd 9a 0d b0 3c 1c 06 c9 3d 51 72 96 bc
       -0.048042357 0.02149086 0.098156184 -0.018365057
000070 9e 7f 0f be ac 01 4f bd f6 ad d0 3c 45 a2 0b bc
       -0.14013526 -0.050538704 0.025473576 -0.008522575
000080 d9 48 c7 3c ab c3 bd bd 1d 94 a2 3d 37 a0 a4 bc
       0.024326729 -0.09265836 0.079384066 -0.020095928
000090 00 c5 6b bd 66 b2 d1 3d 12 af 50 bd 61 1c 1a 3c
       -0.05756092 0.10239105 -0.05094821 0.00940618
0000a0 01 00 e6 3c f6 d2 07 bd 48 f1 3a bd a0 06 1d be
       0.028076174 -0.033160172 -0.04564026 -0.15334558
0000b0 6c 29 62 bc 2c 14 e5 3b 5a 7d de ba ea bc fc 3c
       -0.013803821 0.00699093 -0.0016974614 0.0308518
0000c0 3d 65 46 bd da 8b 60 3d d7 9f a1 3c e3 d0 8a bc
       -0.048436392 0.054820873 0.019729538 -0.016945308
0000d0 0a b7 f1 bc 95 0d 24 3e c1 61 b8 bd 9d 8b fc bd
       -0.029506225 0.16020806 -0.0900302 -0.123313166
0000e0 be 50 81 3d 18 fb 95 3c 03 56 10 3d 5b 73 db 3d
       0.063142285 0.018308207 0.035238277 0.10715362
0000f0 51 89 d8 3c 8b 58 b6 3d 3c 8d 0f bd a9 34 8b bb
       0.026432665 0.08903607 -0.0350468 -0.004248221
000100 1c eb 93 bb dc 82 92 bd 2d 8e 2a 3d 5d 60 ef bd
       -0.004514111 -0.07153866 0.041639496 -0.11688302
000110 c3 bc 8e bc 5f 14 c7 3d 0a 96 89 3d 02 75 92 bd
       -0.017423993 0.09720682 0.06718071 -0.07151224
000120 dd 9b 79 bd 51 3c ea bd a0 6e b3 bd 90 b9 9f 3d
       -0.06093966 -0.11437286 -0.087613344 0.07799065
000130 b3 ea 15 be d3 af cd bc 91 88 90 bd 2b c2 67 3d
       -0.14640312 -0.025108254 -0.07057298 0.056581657
000140 47 61 50 bd 0b d4 bb bd c7 3b ab bd dc d8 79 bd
       -0.05087402 -0.09171303 -0.08361011 -0.06099783
000150 63 8d c0 bc 29 ef 98 3d 58 ce 49 3d 9d 11 ad 3d
       -0.023504918 0.07467491 0.04926905 0.08450625
000160 54 2c 6b 3c 36 26 b6 bd 63 7d 3d 3d ee eb b6 bd
       0.01435383 -0.08894007 0.046262156 -0.08931719
000170 05 3c 81 3d 0e 77 9d bd 4f e3 b4 bd 75 a9 92 3c
       0.06310276 -0.076887235 -0.08832418 0.017903069
000180 55 b1 75 bd 28 a7 8d bd 91 68 e5 bd 1e 0f 52 bd
       -0.05998357 -0.06916648 -0.11201585 -0.051283948
000190 a3 b0 d4 bc 00 78 fb bc 77 cf ce bd 42 60 a8 3d
       -0.025963133 -0.030696869 -0.100981645 0.08221485
0001a0 10 e6 45 3d af 91 d4 bd 2e 9e 5e 3d 03 e4 d8 bd
       0.048315108 -0.103793494 0.05435007 -0.10590365
0001b0 09 9d 91 bd db 53 36 bd 5b 3f 9a 3d bc 10 b8 3d
       -0.0711003 -0.044513565 0.07531615 0.08987567
0001c0 c7 95 dd bc 45 02 7f bb 15 86 a9 3d 4e 8c 94 3d
       -0.027048958 -0.0038911265 0.08277527 0.072533235
0001d0 7a 7a 75 3c 0b db 05 bb 42 5a c1 3d 49 ce d8 3d
       0.014982814 -0.002042475 0.094410434 0.10586221
0001e0 58 6a f6 bc 38 6f dc 3d 1f d6 a9 3c 55 38 86 bd
       -0.030080006 0.10763401 0.020731984 -0.06553713
0001f0 23 a2 a9 bd ee 52 af 3b 98 f4 8e bd 5b 15 ba 3c
       -0.08282878 0.005350462 -0.06980246 0.022715261
000200 d4 bf b2 3c 0b c6 67 3c 7b 8f 5d 3c e9 09 76 bd
       0.021819986 0.014146338 0.013522978 -0.060068045
000210 83 25 89 3d 3e 68 bb bd 30 f4 ad bd 6b 2a ff 3c
       0.06696608 -0.09150742 -0.08493841 0.031148156
000220 2e cb 79 3d 8b 6c 23 bd af 3b 0c 3c 79 87 cf 3b
       0.060984783 -0.039898437 0.008559152 0.0063332883
000230 6c 94 cb bd 3f de fd bc e8 8e ae bd da a9 0c bd
       -0.099404186 -0.030989764 -0.08523351 -0.03434167
000240 59 5c e3 3c 61 f9 6d bd 47 61 3c 3d 68 be c6 3c
       0.027753996 -0.058099154 0.04599121 0.024260715
000250 8e a7 d1 bd c9 8a cb bc 60 9f 03 be 12 9a 40 3c
       -0.10237037 -0.024846451 -0.12853765 0.011755483
000260 d2 6b 2d bd 65 cb 15 be 56 b9 34 3d da df 09 be
       -0.042339154 -0.1462837 0.044122063 -0.13464299
000270 5c 98 ce 3c 01 4b 03 3d c2 d9 0d be 82 a1 c8 bd
       0.025219135 0.03205395 -0.138526 -0.0979643
000280 32 dc b3 bd 3c 68 ca bd 3b 26 d1 3d df 16 9f 3d
       -0.08782233 -0.098831624 0.1021237 0.07768034
000290 02 30 72 bd de c1 4a 3c 76 9f 5d 3d 1a e8 88 bd
       -0.059127815 0.012375323 0.054107152 -0.06684895
0002a0 74 96 8e bc 33 60 d6 3d 87 77 f1 bc 24 f8 ce bd
       -0.017405726 0.10467567 -0.02947594 -0.10105923
0002b0 c9 62 76 3d 4d 67 62 bd ab 77 ce bd 1d 16 44 3d
       0.060152803 -0.055274297 -0.100814186 0.04787265
0002c0 e9 35 e6 3c 96 c9 03 bd 91 8d 9e bd a4 67 6d bd
       0.028101878 -0.03217467 -0.077418454 -0.057960168
0002d0 9a b3 e5 bc 61 ba ef 3c ba ae d1 3b d3 f8 56 3d
       -0.028039742 0.029263677 0.006399003 0.05248339
0002e0 0b aa 9c bd 21 6b b6 3d 55 44 4e 3b 32 90 7d 3d
       -0.076496206 0.08907152 0.0031473835 0.061905093
0002f0 d9 88 07 3e 2d d2 92 3c f5 22 04 bd 0e 61 a1 3d
       0.13235797 0.017922485 -0.0322599 0.0787984
000300 d4 2b f9 bd d9 00 ba 3b dd 3e b3 bd e9 d1 9e bd
       -0.12166563 0.0056763706 -0.087522246 -0.07754881
000310 84 8d 4f 3d c0 d9 7f 3d 23 ce 97 3c dc 4c c5 bd
       0.05067207 0.062463522 0.01853091 -0.096338004
000320 ea 82 05 be c9 db d1 bd 87 ad df 3b 01 c0 4a 3c
       -0.13038221 -0.10246999 0.006826106 0.012374879
000330 48 8b ea 3d bf 8f 4b 3d 71 a0 1f bd 75 ee 9d bd
       0.11452347 0.049697634 -0.03897137 -0.07711498
000340 e6 41 f6 bd e6 13 ce 3c 34 94 53 3d 81 15 b2 3c
       -0.12024288 0.025155973 0.05165501 0.02173877
000350 fe 2e b9 bc 8c bb 0e 3d 7a ac 00 3e 81 10 13 bd
       -0.022605415 0.034846827 0.12565795 -0.03590441
000360 85 65 bd bd 74 37 91 3c 22 b8 bb 3c 3e 0c 5b 3d
       -0.09247879 0.017726637 0.02291495 0.053478472
000370 c1 7c 09 be f4 3f c3 bc d8 7f 08 3d 79 77 64 bd
       -0.13426496 -0.023834206 0.033325046 -0.055778
000380 49 80 39 bd fa a9 85 3d 56 00 a1 bc 37 bb ec 3c
       -0.045288358 0.06526561 -0.01965348 0.028897865
000390 02 24 a1 3d eb 44 4d bd 02 03 b0 3d 90 85 14 bd
       0.07868196 -0.050114553 0.08594324 -0.036260188
0003a0 09 24 bd bd fb 26 95 bd e0 f7 fb 3b 08 13 31 bc
       -0.09235389 -0.072828256 0.007689461 -0.01080776
0003b0 7f fa fe 3d a4 86 1c 3e a5 3e 0d bc b4 82 0c 3e
       0.12450122 0.15285736 -0.008620893 0.13721734
0003c0 f9 42 c3 bc b1 5a fe 3d 52 ed 27 bd f1 77 66 bd
       -0.023835646 0.12419642 -0.04099781 -0.05626673
0003d0 50 db ae bd 14 dd ae bd 6d 3b d3 bd 08 ab b2 bd
       -0.08537924 -0.08538261 -0.10314069 -0.08724028
0003e0 df 65 f1 3b 8d 68 6e 3d c1 ae 65 bd 96 09 4c 3d
       0.0073668803 0.058205176 -0.05607486 0.04981383
0003f0 11 a8 d8 bd 1a ec 92 bd 70 aa 57 3d 8e e2 94 bd
       -0.10578931 -0.07173939 0.052652776 -0.072697744

block_2.0.bias f4 [10]
000000 f8 12 93 3d ac 65 ad 3c ef 5b 57 3d 06 92 99 bc
       0.071813524 0.021166645 0.05257791 -0.018746387
000010 9a b4 79 3d 96 23 47 3d eb 70 82 bd a3 16 80 3d
       0.06096325 0.04861792 -0.06369194 0.062543176
000020 cf 55 a4 3d 7d d3 b9 3d
       0.08024179 0.09073541

block_2.1.weight f4 [10]
000000 a7 cf 7f 3f 8b c0 7f 3f 45 86 83 3f 6a bc 70 3f
       0.9992623 0.9990317 1.0275351 0.940375
000010 6f e6 79 3f 29 8a 80 3f 5e 80 81 3f da d7 8a 3f
       0.9761724 1.0042163 1.01173 1.0847123
000020 85 8d 6f 3f 49 bc 7c 3f
       0.93575317 0.987248

block_2.1.bias f4 [10]
000000 48 4a 04 bc f0 55 66 bc 27 80 37 bc d7 2e 14 bd
       -0.008074351 -0.014058575 -0.0111999875 -0.036177482
000010 43 ff 8b bd c5 0c 7f bc a1 88 be 3a a3 c6 a7 bd
       -0.06835797 -0.015567009 0.0014536568 -0.08192184
000020 dd b9 bc bd c0 7a 3c bd
       -0.09215138 -0.0460155

block_2.1.running_mean f4 [10]
000000 4f 59 ad be 24 3f 2e bf 18 fc 8c bd 8d 44 ec 3e
       -0.338572 -0.68065095 -0.068840206 0.4614605
000010 1c fc 1c 3e 47 86 2e 3e 05 4e c9 be 9b 18 29 3f
       0.15330547 0.1704341 -0.39317337 0.6605317
000020 ba 49 24 3d 2b 5b 14 be
       0.040109374 -0.14487903

block_2.1.running_var f4 [10]
000000 04 bb 35 3f 8e 81 95 3f 1b 38 60 3f d0 29 f3 3f
       0.7098849 1.1680162 0.8758561 1.8997135
000010 f6 ae 88 3f a3 4a fb 3e 7d e3 83 3f b3 d6 4c 3f
       1.0678394 0.4908038 1.0303799 0.80015105
000020 e9 72 25 3e f5 50 92 3f
       0.16157116 1.1430956

block_2.3.weight f4 [10, 10, 3, 3]
000000 fc 9e 30 3d 11 74 26 3d 52 b6 a3 bc ce ef 05 bd
       0.04312037 0.040638033 -0.019984398 -0.0326994
000010 8a e9 2b 3d a3 23 a7 bc c9 3d d1 3c 10 ee a8 bc
       0.041970767 -0.020402735 0.025542157 -0.02062133
000020 22 a5 a2 bd 89 4d a7 3d c4 7b eb 3c 5b b7 d3 bd
       -0.07941653 0.081690855 0.02874554 -0.10337707
000030 75 51 c7 bd 70 d1 55 bd 61 68 3a bd 59 c2 87 3c
       -0.097323336 -0.05220169 -0.0455097 0.016572164
000040 8a d3 8b bd e3 48 40 bc 07 79 6f 3a e3 15 30 3d
       -0.06827457 -0.011736128 0.0009135161 0.042989623
000050 c3 41 e5 3d a7 45 cd bd 15 2f 8b bd b1 50 10 bd
       0.11194184 -0.10023051 -0.067960896 -0.035233203
000060 3d 06 fc bd c1 66 ae bd a2 c9 32 bd 18 31 da bd
       -0.12305877 -0.085156925 -0.043649323 -0.10653895
000070 fd 27 94 bd 84 05 a2 bd 48 13 75 bb 02 8b 33 bd
       -0.0723419 -0.07911208 -0.0037395526 -0.04383374
000080 cf 95 a1 3d 28 e4 77 bd 9e 4c f3 bd 95 15 5e 3c
       0.07889902 -0.06052032 -0.11879848 0.01355495
000090 56 b3 bd bd 4a 06 96 bd e7 07 b0 bd f2 02 f4 bc
       -0.09262721 -0.07325418 -0.08595257 -0.02978656
0000a0 2d ee 3c bd 6f 01 89 3d 58 19 a8 3b 16 1c d4 bd
       -0.04612558 0.066897266 0.0051299743 -0.103569195
0000b0 84 12 34 3d d0 21 aa bc 2e e1 30 3d 08 09 d1 3d
       0.04396297 -0.020768076 0.043183498 0.10206801
0000c0 b1 19 0c bb 46 dc bb 3d e5 41 41 bb 3a 10 cf bd
       -0.0021377618 0.09172873 -0.002948874 -0.10110517
0000d0 2a c5 8a bc f2 68 52 bb ac b8 3c 3c 8b 3d bb bc
       -0.016939718 -0.003210601 0.011518639 -0.022856494
0000e0 92 0d 72 bc 54 14 77 bd 35 b8 e9 bc fe 17 79 3d
       -0.014773743 -0.06032212 -0.02853022 0.060813896
0000f0 d2 e6 f7 3c cf b1 97 3c f3 a7 13 bc c3 a3 b7 3b
       0.03026143 0.018517403 -0.00901221 0.0056042387
000100 81 e9 30 3c a2 8e 08 3e d8 d5 77 3d 61 ea 8d bd
       0.010797859 0.1333566 0.06050667 -0.0692947
000110 f4 3c 04 3e 37 9c 13 be 6c 91 b4 bd fd 5c dc 3d
       0.12913877 -0.1441506 -0.088167995 0.107599236
000120 00 8b c8 3b 45 89 00 3d 90 0c 93 3d c7 7f 60 3d
       0.0061200857 0.03138091 0.071801305 0.054809358
000130 8e ef 2b 3d 2a 11 e9 3c b2 a7 0f 3d 76 53 cf bc
       0.041976504 0.028450567 0.035072036 -0.025308352
000140 9b 1a 91 3c 32 df 67 3d 3e 36 30 3d 31 74 0e bd
       0.017712882 0.05660934 0.04302048 -0.034778778
000150 41 6c 7b 3c 53 5b b7 bd 39 94 82 3d 67 d1 77 bd
       0.015345634 -0.089529656 0.063759275 -0.060502436
000160 7c b4 04 be 4e 46 42 3b ea 71 21 bb d1 4c 02 3d
       -0.12959474 0.0029643956 -0.0024634548 0.03181154
000170 58 72 b4 bd 28 60 97 bd d0 2d ae bc 81 57 53 bd
       -0.08810872 -0.07391387 -0.02126208 -0.051597122
000180 1b 8f c9 bd 6f a1 10 be 3a 67 50 bd cb 82 63 bd
       -0.09841748 -0.14124082 -0.050879695 -0.055544656
000190 98 e2 bb bd 34 09 71 bd 66 7b 2b 3d dc c7 f4 bd
       -0.09174079 -0.058846667 0.04186573 -0.11952183
0001a0 db c1 62 3d 73 e8 8a 3d 68 00 45 3b 6c 2d 1d 3d
       0.055360656 0.067826174 0.0030060057 0.038373396
0001b0 f1 22 8a b8 3d 1d 96 ba ae 5e 01 3d c7 40 48 bc
       -6.586861e-05 -0.0011452805 0.031584434 -0.012222475
0001c0 f3 0f a7 bd 43 aa a7 bd 6f 69 08 bd 98 8c b9 bd
       -0.08157339 -0.08186772 -0.033303674 -0.09060019
0001d0 77 2f 77 bd 85 91 2b 3d c8 24 55 3d fd a3 36 bc
       -0.060348 0.041886825 0.05203703 -0.011147496
0001e0 14 f9 09 bd ff a5 07 3d bb b0 b9 bd d6 f5 92 3d
       -0.033684805 0.03311729 -0.09066912 0.07175796
0001f0 5f 69 e1 bc d8 50 2d bd d0 0c 3c bc dd 8c c7 3d
       -0.027516065 -0.042313427 -0.011477664 0.097436644
000200 c5 07 04 bd 58 88 84 3d 77 f4 88 3d f6 42 65 3d
       -0.032233972 0.06471318 0.06687253 0.055972062
000210 be a3 39 bc ff 53 71 bd 8e 8f f7 3c 05 78 78 3d
       -0.011330543 -0.058917996 0.03021982 0.060661335
000220 f7 d7 09 3d 33 bf 5e bd 3e 4e 79 3d 80 4e c3 3d
       0.033653226 -0.05438156 0.060865633 0.09536457
000230 22 7a d2 3b 39 60 ed bd 80 c8 8c bd 94 0c f5 3c
       0.006423251 -0.11590619 -0.0687418 0.029913224
000240 2a a2 e4 bd 9f 59 88 3c aa 16 9d bc 45 c8 d5 bd
       -0.11163743 0.016644297 -0.019175846 -0.10438589
000250 f4 c5 9d bd 6e 42 a5 bd 90 eb 65 3d 50 92 79 bd
       -0.07703772 -0.08069311 0.056132853 -0.06093055
000260 07 33 fe bd 0a b3 d3 3d ec 2a ec 3b c5 c1 72 3d
       -0.124120764 0.10336883 0.007207265 0.059266824
000270 61 56 eb bc 87 0f 0c 3d a6 9d 25 bd 4a bc 0b bc
       -0.028727712 0.034194496 -0.04043355 -0.008528778
000280 30 24 eb bd 84 01 dc bd 9c df 92 bb 07 e9 33 bc
       -0.114815116 -0.107424766 -0.0044822227 -0.010980851
000290 54 f1 af bd a4 0b 13 bc cf d8 80 3d a6 a5 b9 bd
       -0.085909516 -0.008974943 0.06291353 -0.09064798
0002a0 23 bf cf bc 4c 22 a1 3c 85 05 8f bd 73 06 d7 bd
       -0.025359696 0.019669674 -0.06983475 -0.10499277
0002b0 3c e7 33 3d 99 17 58 3c 9f c1 c9 bd 1a 94 d7 bd
       0.043921694 0.01318922 -0.098513834 -0.10526295
0002c0 fb 7f ee bd 15 3b 88 bd c7 ea 41 bd 20 36 12 3d
       -0.11645504 -0.06651894 -0.04734304 0.03569615
0002d0 61 7e 07 3d 85 d0 38 3d 63 f5 3c 3b 5d 02 b4 bc
       0.03307951 0.045120735 0.0028832785 -0.021973783
0002e0 5b 11 cd bd eb 1b 35 bd 38 84 75 bd e0 f4 a9 bd
       -0.10013076 -0.044216078 -0.059940547 -0.08298659
0002f0 fc 6e a3 bc 6b 64 86 3d f9 89 f9 3d 72 dd fc bc
       -0.019950382 0.06562122 0.12184519 -0.030867312
000300 f1 28 f5 3d 59 65 c8 ba 84 01 dc bc 33 51 95 3d
       0.119706996 -0.0015288993 -0.026856191 0.07290878
000310 d6 41 9f bb b5 fc f6 3b 92 93 68 bd 0e ce 40 3d
       -0.004860143 0.0075374492 -0.05678136 0.04707151
000320 6e d4 a3 3d fc 2c ad 3d f2 ae de 3c 9d a9 a9 bd
       0.07999502 0.08455846 0.02718303 -0.08284304
000330 3b 25 4b 3d 04 b7 9b 3d 69 bc de 3c 45 b6 b4 bc
       0.049596053 0.07603267 0.02718945 -0.02205957
000340 7d 3c e9 bc 75 c5 c8 bd 68 5e 94 3c 66 a1 67 bd
       -0.028471226 -0.09803287 0.018111423 -0.056550406
000350 7b c2 88 3d ea 4f 04 bd a4 fd cb 3c f2 f1 f7 bb
       0.06677719 -0.032302774 0.024901219 -0.007566684
000360 08 89 08 bc d1 7b d6 bc 77 76 c9 3c 60 40 0d 3a
       -0.008333452 -0.026182087 0.024592621 0.0005388316
000370 70 b1 17 bd 24 8a 5f bd fc 7e 95 3c 27 09 ca 3d
       -0.037034452 -0.0545751 0.018249027 0.09865027
000380 c1 dc c0 bd b1 bb c9 3c 17 81 56 3d 32 51 f0 bb
       -0.094171055 0.024625631 0.052369203 -0.007333898
000390 b6 57 31 3d a0 f2 94 3c 3f 74 7e 3d e0 42 65 3d
       0.04329654 0.018182099 0.06212258 0.05597198
0003a0 fd 87 85 bd 27 a4 40 bd de ab 8d 3d 9d 48 89 3d
       -0.06520078 -0.047031548 0.06917547 0.06703303
0003b0 06 c0 b3 bd be 1d 39 bd 05 1b 45 3c 3c 70 76 bc
       -0.0877686 -0.04519438 0.012030368 -0.015041407
0003c0 47 4e 04 bd 18 36 8b 3d ca b2 8b bd 07 e2 b3 bd
       -0.032301214 0.06797427 -0.06821211 -0.08783346
0003d0 d4 54 63 bd e3 4b 83 3d 2c b7 b3 bd 70 34 a7 bd
       -0.05550082 0.064109586 -0.08775172 -0.081642985
0003e0 73 ac 12 bd c3 f5 ed bd bc 0e 0e be 1d 30 23 be
       -0.03580899 -0.11619141 -0.13872808 -0.15936323
0003f0 75 d5 c5 bc 40 e3 a8 3d 7a 66 d6 3d a5 6d f7 bd
       -0.024149636 0.082464695 0.104687646 -0.1208146

block_2.3.bias f4 [10]
000000 81 62 a4 3d 92 e2 8c bc a4 5e bf bd 49 77 1e bc
       0.08026601 -0.01719788 -0.09344223 -0.0096719945
000010 93 68 fb 3c 50 55 0a be 26 73 d3 bb f1 e7 7f bd
       0.030689513 -0.13509107 -0.0064529357 -0.062477056
000020 85 1f 0d 3d 8f 6c a8 bd
       0.034453887 -0.08223831

block_2.4.weight f4 [10]
000000 27 52 48 3f a2 1e 5f 3f e4 2f 57 3f 7d 3b 59 3f
       0.78250355 0.87156117 0.8405745 0.84856397
000010 66 70 4d 3f 74 80 59 3f 88 b9 4c 3f be 68 51 3f
       0.8024963 0.8496163 0.799706 0.8180045
000020 08 07 65 3f 35 38 5f 3f
       0.89463854 0.8719514

block_2.4.bias f4 [10]
000000 14 9c 5c be c0 98 1a be 6c 8e 5f be fb b8 33 be
       -0.21543914 -0.15097332 -0.21831673 -0.17551033
000010 f7 1c 66 be c9 05 40 be 65 e4 5a be 67 cb 7e be
       -0.22471987 -0.18752207 -0.21376188 -0.2488228
000020 19 6e 2a be 05 25 32 be
       -0.16643561 -0.17396934

block_2.4.running_mean f4 [10]
000000 8d 10 62 be d7 b5 37 bf 2f 15 6d be 58 13 42 bf
       -0.22076626 -0.7176184 -0.23152612 -0.75810766
000010 63 b9 b1 be 03 49 07 bf d7 3e 41 be f9 d2 4b bf
       -0.3471175 -0.5284578 -0.18871628 -0.79618794
000020 d6 08 65 bd c1 81 7c be
       -0.05591663 -0.24658872

block_2.4.running_var f4 [10]
000000 b0 cd dc 3e d3 78 31 3f a9 09 ac 3e 71 30 bc 3f
       0.43125677 0.6932499 0.3360112 1.4702283
000010 2c 22 46 3f cd 56 9f 3f 52 65 20 3f 70 f8 e0 3f
       0.7739589 1.2448364 0.626546 1.7575817
000020 72 93 8b 3e 5e cf f9 3e
       0.2726093 0.4879102

classifier.1.weight f4 [3, 31360]
000000 29 ab 9b ba ce 99 4d bc a6 f4 17 3c 97 c2 e4 3a
       -0.0011876571 -0.012548877 0.009274637 0.0017453012
000010 2d 4d e9 3b 86 5f 56 bb 92 38 90 3a 4a 40 b5 bb
       0.007119796 -0.0032710745 0.0011003187 -0.0055313455
000020 48 d2 85 3b a4 1f 19 3b ba 48 f6 3a 26 7e 41 bb
       0.0040839054 0.0023364807 0.0018789985 -0.0029524653
000030 e4 e6 6b bc 94 db 34 bc 58 99 14 bc 57 cc ba 3b
       -0.01439831 -0.01103868 -0.009069763 0.0057006287
000040 fb aa 1c 3c b8 c9 5e 3c 51 f5 82 3b 33 cf b2 3c
       0.009562249 0.013597898 0.003996529 0.021827316
000050 cd eb d9 3a 74 c2 c0 bb 01 b7 00 bc ad fb aa ba
       0.001662606 -0.0058825556 -0.0078561315 -0.0013044976
000060 4c ce 64 3c 70 67 ea bb 15 0e ff 3a 84 a0 51 3b
       0.013965201 -0.007153444 0.0019459153 0.0031986544
000070 2d a8 2e 3c 33 b8 d4 bb a2 12 fb bb 4c 3b 9d bb
       0.010660213 -0.006491685 -0.0076621333 -0.0047983285
000080 75 36 01 bc fe 5f f9 3a d9 e3 5a bc 22 60 92 bb
       -0.007886519 0.00190258 -0.013359987 -0.0044670263
000090 67 36 d9 b9 99 2b 47 3c 6a 77 18 bb 1d 8f fb bb
       -0.00041429998 0.012156391 -0.0023264536 -0.0076769725
0000a0 61 df fc 3b ef 68 55 3c bb 99 a9 3c 8e ff 1d 3b
       0.0077170585 0.013025506 0.020703187 0.0024108621
0000b0 62 af a4 3a f6 22 d1 3b db 10 1a 3c 28 25 3d 3c
       0.0012564475 0.0063823415 0.009403433 0.011544503
0000c0 55 5f 2f 3c 16 2a 13 3c 4c 29 53 3c 5c 2a aa 3c
       0.010703881 0.008982202 0.012888264 0.020772152
0000d0 f8 72 09 3d f7 f2 6d 3c a8 3d 1d 3a 5b 00 81 bc
       0.03355691 0.014523259 0.0005998262 -0.01574724
0000e0 41 0f 5b bb a2 b9 46 3c 54 dc 59 3c 56 52 85 3a
       -0.003342584 0.012129219 0.013297159 0.0010171633
0000f0 74 d6 90 3b 5c a5 41 bc 70 61 6a 3a a6 87 44 3b
       0.004420096 -0.01181921 0.0008940911 0.002998808
000100 fd 08 3e bc a9 b1 26 bc 2d 4f 03 bc 54 6b 39 3c
       -0.011598823 -0.010174193 -0.008014482 0.011317093
000110 b7 9f 84 bb 0b be 67 3b c4 53 57 3c 91 d0 80 3a
       -0.00404736 0.0035361077 0.01314253 0.0009827783
000120 b3 97 79 3c 28 ef 6e 3b d4 1f 39 3b 5e d0 37 bc
       0.015233922 0.0036458466 0.002824773 -0.011219112
000130 a0 d7 67 bb 86 e0 b5 3c 85 64 fd ba fb 93 52 3b
       -0.0035376325 0.022201788 -0.0019332325 0.003213166
000140 b0 59 09 3c 00 20 09 3b 96 5b 26 bb 7c c5 14 3b
       0.0083832 0.0020923615 -0.002538418 0.0022700718
000150 b7 28 26 3b d3 cb cb bb e6 96 85 3b 09 56 9b bb
       0.0025353858 -0.006219366 0.0040768264 -0.004740481
000160 20 1e 45 ba 74 d5 a5 3b 63 7c e8 b9 46 97 39 3c
       -0.00075194426 0.005060846 -0.00044343164 0.01132757
000170 2f 18 06 3c 4c 9d 4d 3c 45 c3 17 3b 7c d3 b7 3c
       0.008184477 0.0125497095 0.0023157161 0.02243971
000180 94 9e ec bb 1b e3 7e bc ec ad e3 3b 95 87 6a 3c
       -0.0072210524 -0.015557076 0.0069482233 0.014314552
000190 f7 54 67 3c b1 ab b7 3a b9 e0 cd 3a 2f d5 ed 3b
       0.014119378 0.001401296 0.0015707231 0.0072580795
0001a0 7e 2e 6e bc d9 ab f3 bb 74 60 4e ba 35 96 8f 3c
       -0.014537452 -0.0074362573 -0.0007872649 0.017527679
0001b0 01 ce ba 3b cd 65 9e 3b 93 35 7c 3c d3 3f 6e bb
       0.005700827 0.004833913 0.015393632 -0.003635396
0001c0 85 79 16 bc 98 f3 9f 3a b4 1e 75 3c 2c 7c 6e 3b
       -0.009184246 0.0012203334 0.0149609335 0.003638993
0001d0 e9 1a 41 3c 1d 0f c9 3c de 0b 4e 3c ac 4d d0 3b
       0.011786201 0.02454334 0.012576072 0.0063569155
0001e0 cb ca 33 3c 41 04 8a 3c 50 dd b8 3c 29 c6 76 3c
       0.010973643 0.016847732 0.022566468 0.0150618935
0001f0 80 fc ef bb 45 15 5e 3a 41 6e 1c 3b 85 19 16 3c
       -0.0073238015 0.00084717973 0.0023869427 0.009161358
000200 ab 1f f8 bb 5d 5c 38 bb 77 e8 82 bb 06 f8 85 bb
       -0.0075721345 -0.0028131225 -0.003994997 -0.0040884046
000210 dc 67 16 bb e8 9b 26 bc ae 4b 3b bc 9b bd 0f bd
       -0.0022950089 -0.010169007 -0.011431618 -0.03509293
000220 fc ad 68 bc 93 30 29 3c 0b 80 ad 3a 42 66 a1 bc
       -0.014201637 0.010326522 0.0013237012 -0.01970208
000230 16 76 15 3a ee 9e c7 3b 53 5b b0 3a b2 bb ae bc
       0.0005701495 0.006091944 0.0013454951 -0.021329734
000240 42 ad 72 bc f3 09 35 bc e4 d9 06 bc 99 f5 87 3b
       -0.014811816 -0.011049735 -0.00823066 0.0041491506
000250 9a 59 3c 3c b5 6a 5c bc 4c 19 a4 bc d3 b1 45 bb
       0.011495972 -0.013453175 -0.020031594 -0.0030165806
000260 78 6d 02 bc ab 6a f2 bb b3 d5 a0 bb 6c 96 4a 3b
       -0.00796067 -0.0073979697 -0.0049082874 0.0030912412
000270 f0 27 8f b8 83 fc e5 bb 4b 97 c1 3c 35 ef 5c 3c
       -6.82621e-05 -0.007018627 0.023631712 0.013484766
000280 4b e3 a0 3c 47 8d a1 3c 7a a7 ae bc 6f 1f 43 3c
       0.019639632 0.019720687 -0.021320093 0.01190935
000290 ce bf 50 bc 9c bb a9 3b 6d c1 08 3c ca 0e 76 3c
       -0.012741042 0.0051798355 0.008346898 0.015018174
0002a0 2c 3e cc 3b 21 06 2b 3c b8 1d c0 3c 7c d5 31 3c
       0.0062329974 0.010438473 0.023451671 0.010854121
0002b0 47 35 b0 ba 2a ed ad 3b e3 65 0d 3b 38 ac 35 3b
       -0.0013443612 0.005307813 0.0021575622 0.0027721059
0002c0 8c 00 0a 3c d1 3d 87 3c 0d a2 45 3b 3a f8 ed 3c
       0.008422982 0.016508969 0.0030156404 0.029049028
0002d0 91 53 6a 3b c6 74 da 3b c0 8a 8b bb d3 43 72 ba
       0.0035755376 0.0066667525 -0.0042584836 -0.0009241674
0002e0 c2 a9 8f 3b 33 0c e7 ba c5 42 45 3c b9 68 c2 bb
       0.0043842504 -0.0017627537 0.012039845 -0.005932894
0002f0 90 f6 d1 ba ce 42 80 bc 82 1e 35 bc 96 7b d2 39
       -0.0016018916 -0.015656855 -0.011054637 0.000401464
000300 7c cf 79 3c ec 1f 9f 3c ac 3b 8e 3c 71 2e 81 3c
       0.015247222 0.019424401 0.017362438 0.015769215
000310 50 6c 01 3c 76 59 f0 3c 8c ea 9f 3c 88 db 71 3b
       0.007899359 0.029339533 0.01952102 0.0036904532
000320 b6 15 e8 bb 7d 8b 41 bc 1f 42 8d bb 8b ed 83 3b
       -0.0070826663 -0.011813042 -0.0043108608 0.00402612
000330 f4 44 8e bc fe 5f 98 3b 60 6f 19 bc f1 ee 2d bb
       -0.017366864 0.004650115 -0.009364933 -0.0026540125
000340 fd 2c 4a bc 30 b9 12 bc a6 7b f0 ba fc 3b d7 3b
       -0.012339828 -0.008955285 -0.0018347397 0.00656843
000350 b3 4c 62 3c 97 ee fb 3c de 5e b1 3c 14 6a be 3b
       0.013812232 0.030753417 0.021651682 0.0058109853
000360 54 5f 7f 3c 4f dc a5 3c e3 dc b2 3c 78 46 63 3a
       0.015586693 0.020246653 0.021833843 0.00086698635
000370 db 3d 6d ba 19 c8 17 39 c2 a0 0e 3d 09 98 ae 3c
       -0.00090500497 0.00014475024 0.03482128 0.02131273
000380 3a 82 f6 3c c3 48 29 3c 86 44 f2 3b c8 e4 be 3c
       0.030091394 0.010332289 0.0073934225 0.02330245
000390 41 da b9 3c e0 c8 82 3c a1 6f 85 bb 16 4f 9d 3b
       0.02268708 0.015964925 -0.004072145 0.0048006875
0003a0 f1 0b eb 3b ac 8e a4 3c ca 13 aa bb 28 4f c1 ba
       0.0071730544 0.020087563 -0.0051903473 -0.0014748322
0003b0 4d 85 67 3b 86 7a 31 bc 90 78 21 3b 92 7b 55 bb
       0.0035327256 -0.0108324345 0.0024638511 -0.0032574874
0003c0 72 82 ec b9 a9 2a b3 3b 36 20 1b bb 34 e4 ee bb
       -0.00045110617 0.005467732 -0.0023670322 -0.0072903875
0003d0 82 68 16 3b ae c2 b4 bb 55 0a 32 3c 62 fb 83 3c
       0.0022950475 -0.0055163717 0.010866721 0.01611108
0003e0 fd 60 d8 3c 95 29 5c 3d 52 e7 0a 3d e4 48 3d 3d
       0.026413435 0.053750593 0.03391201 0.046212092
0003f0 15 a9 0e 3d 9d 68 0f 3d 3b 75 04 3d 13 85 aa 3c
       0.034829218 0.035011876 0.032338362 0.020815408

classifier.1.bias f4 [3]
000000 5a fb 82 bc f6 2f cd ba 0d f7 d1 3b
       -0.015988994 -0.0015654552 0.0064076246
