src/models/pizza_steak_sushi.pth.pt (torch, 399233 bytes, 26 tensors)

block_1.0.weight f4 [10, 3, 3, 3]
000000 70 48 0f 3e a1 56 a8 3d 8e 52 58 3e 1c 12 f6 bd
       0.13992476 0.08219648 0.21125242 -0.12015173
000010 7b cc 52 3e 35 59 49 3d 5c 88 a5 3d 38 15 06 bd
       0.20585816 0.04915734 0.08082649 -0.03273508
000020 fe db 62 3e 00 1d b7 bd f5 57 06 3e 61 7d 2a be
       0.22154233 -0.08941078 0.1311949 -0.16649391
000030 a0 66 a6 3d 6f 19 4d bc 3c 20 8b bd 7e 7d 2e 3e
       0.08125043 -0.012518271 -0.067932576 0.17040059
000040 2f d9 0b be 8a 22 18 3e 74 37 10 be 0f 63 14 3e
       -0.13657068 0.14856926 -0.14083654 0.14490913
000050 c4 94 9e bd f1 f1 19 be fe 18 5b 3d 9f 77 2b 3e
       -0.077432185 -0.150337 0.05349063 0.1674485
000060 83 4a e4 3d d6 a8 b8 bd d5 21 4c bc 6c 03 24 be
       0.111470245 -0.09016578 -0.012459238 -0.1601693
000070 18 b5 86 3d e6 6d 23 3d 8c 61 c0 bd 71 be f8 bd
       0.0657751 0.03989973 -0.093936056 -0.12145699
000080 e1 87 9b bd 82 9d 9c bd f1 7b bf bd 45 b9 8f 3d
       -0.07594276 -0.0764723 -0.09349812 0.07017759
000090 55 94 91 3d 8f ea 37 be 1b d6 ef bd 28 24 d0 bd
       0.0710837 -0.17960571 -0.11710759 -0.10163146
0000a0 8d f5 79 bd bd 0e 3d 3d 25 28 a3 bd 57 35 4e 3d
       -0.06102519 0.046156634 -0.07966641 0.050343838
0000b0 b4 f5 47 be 83 a8 f6 3d 74 b0 23 be f2 35 1c be
       -0.19527322 0.1204386 -0.1598528 -0.15254954
0000c0 94 c5 50 bc 4a 70 d4 bd 9b fc b1 3d 90 22 84 3d
       -0.012742419 -0.1037298 0.08690759 0.06451905
0000d0 1b fb 37 3e 1a 2b 46 3a 4b 1a 14 be e7 e3 e8 bd
       0.17966883 0.0007559523 -0.14463155 -0.11371594
0000e0 d3 1f 81 3d d9 ae 2b 3e 49 2d 43 3e f5 ef ac 3d
       0.06304898 0.16765918 0.19060244 0.08444206
0000f0 af b0 39 be 8a 85 bf 3d 98 5d 15 3c 6b 78 f8 bd
       -0.18133806 0.093516424 0.009116553 -0.12132343
000100 cf 40 c7 bc f0 cd 36 3e ce 68 33 be c7 77 15 bd
       -0.024322895 0.17851996 -0.17520449 -0.03649118
000110 03 d0 01 3e 5c a9 45 be 31 cf 2f be 83 ef 15 3e
       0.12677006 -0.19302887 -0.17168881 0.14642148
000120 d7 8b 98 3d 20 4e 26 be 8c f4 58 3d 30 92 01 bc
       0.07448547 -0.1624074 0.052967593 -0.007908389
000130 99 04 0a bd d9 6b 2a 3e 54 d6 eb 3d 46 59 14 be
       -0.03369579 0.16642703 0.11515489 -0.1448718
000140 90 8c aa 3d 1f 02 ac 3d ff 14 a8 3d ed 44 27 3e
       0.083275914 0.08398842 0.0820713 0.16334887
000150 99 f9 5c 3e 62 5b 59 bd 70 52 dc bc 4e 1e 4b 3e
       0.21579589 -0.053065665 -0.026894778 0.19835779
000160 6f 53 03 3e e8 5b a7 3d 7c 47 40 3e df 99 22 3d
       0.12824796 0.081718266 0.18777269 0.039697524
000170 ee ae 96 bd 00 69 2a bc 3f 42 f1 bd 75 a9 7b bd
       -0.07357584 -0.0104010105 -0.117802136 -0.061440904
000180 00 51 83 bc 71 79 a4 bd 05 06 38 3d 7f e6 30 be
       -0.016029835 -0.080309756 0.044927616 -0.17275427
000190 37 2b 11 3e a3 9f 08 3e fd 12 73 3d b4 ed b3 3d
       0.14176641 0.13342147 0.05934428 0.08785573
0001a0 a5 db b2 bd 29 9f 99 3d 62 16 7c 3d b1 03 06 be
       -0.087333 0.075010605 0.061544783 -0.13087346
0001b0 06 0e 32 3e e3 86 8e 3d fe 5e 05 bd d9 aa fc bd
       0.17388162 0.06959321 -0.032561295 -0.12337274
0001c0 7f 5e 13 be bc 55 ac bd 08 a0 9a bd 2d f6 1d 3e
       -0.14391516 -0.0841479 -0.07550055 0.1542594
0001d0 07 20 2d bb c8 a8 8d bd 06 72 83 3d 05 15 83 3c
       -0.0026416795 -0.06916958 0.064182326 0.016001234
0001e0 32 94 16 bd d1 9c 11 3e 9c 27 2b bd 85 c4 8e 3d
       -0.036762424 0.14219977 -0.04178582 0.06971077
0001f0 2f 43 22 be 28 0b 95 3d fc ca 2b be 35 97 37 3a
       -0.15845941 0.072775185 -0.16776651 0.00070034276
000200 31 b4 21 be 36 39 03 3e 2b 4d 9b 3d 43 81 16 be
       -0.15791394 0.12814793 0.07583078 -0.14697747
000210 ef 6a ee bd b8 73 cc bd 1a ca f1 bd 7a 08 aa 3c
       -0.1164149 -0.09983009 -0.11806126 0.020755995
000220 df e9 10 3e 25 fe 57 bd e9 88 88 bd 21 18 f1 3d
       0.14151715 -0.052732605 -0.066667385 0.1177218
000230 19 8a 5a 3d a5 3a a3 3d 6e 6a 8c 3d 6b 3f b6 3c
       0.053354356 0.0797017 0.06856237 0.022247037
000240 3d 9e 36 bd 8e 56 09 be 50 84 3b be 3f fa bf bc
       -0.0445845 -0.13411924 -0.18312192 -0.023434756
000250 ae cd 2d be aa 37 34 3e df a5 9a 3d d3 2d ac bd
       -0.16972992 0.17599359 0.07551169 -0.08407178
000260 07 b7 ec bd 81 bc 8a 3d 5e b8 72 3d eb f3 58 3d
       -0.11558347 0.067742355 0.059257858 0.052966993
000270 a7 22 1a 3d c8 04 85 bd c7 5a 2b 3d 0f 5e f9 ba
       0.037630703 -0.064950526 0.04183462 -0.0019025224
000280 32 46 07 be da a5 39 be 9a 72 3e be 44 2d 17 3e
       -0.13210371 -0.18129674 -0.18598405 0.14763361
000290 88 8b f7 bd 88 8e 2c be ec b0 dc bc 6f 81 09 be
       -0.1208716 -0.16851246 -0.026939832 -0.13428281
0002a0 9b 7f f3 3d 3d 8c ea bc e1 d8 6d bc c5 d0 3a 3d
       0.11889573 -0.028631324 -0.01451704 0.045609254
0002b0 bb 44 45 be 24 b1 ae 3d 74 20 12 be ca 7e b9 bc
       -0.192645 0.08529881 -0.14270192 -0.022643466
0002c0 83 95 5f bd 7d 5a 08 3e f5 7a 4a 3d 80 a7 9b bd
       -0.054585945 0.13315769 0.049433667 -0.076003075
0002d0 1a dc 5a 3d 9e 73 a9 bd 73 ee 3f be a8 d3 76 bd
       0.05343256 -0.08274005 -0.18743305 -0.060260445
0002e0 27 8b be bc a1 18 0c 3e 90 ac 25 3d dd 34 25 be
       -0.023259712 0.1368127 0.04044777 -0.16133447
0002f0 0c f0 2d bd e3 90 7b 3d 5f 21 ef 3d f4 48 9b bd
       -0.042465255 0.06141747 0.11676287 -0.07582274
000300 5d 03 0d be cd f0 01 3e af bd a6 bc 73 e2 f2 3d
       -0.13770814 0.12689514 -0.02035412 0.11859598
000310 b6 9c cb bd 00 3b ea 3d 05 9d b5 bc 38 e4 21 3e
       -0.099419996 0.114370346 -0.0221696 0.15809715
000320 78 39 bf 3d c9 b4 99 bc 2d 06 88 bb 73 aa f1 3d
       0.09337133 -0.018762963 -0.004151127 0.11800089
000330 8e 49 cc bd 27 1f 4c 3e 3f 68 4b 3e eb a5 4d bd
       -0.09974967 0.19933759 0.19863985 -0.05020706
000340 80 f5 d2 3a f3 e4 4a 3e 5b 00 10 be fc 93 2b be
       0.0016094893 0.198139 -0.14062636 -0.1675567
000350 e5 4f 6e bd 63 90 09 3e 14 49 28 3e ac 1b 1a bc
       -0.058181662 0.13433985 0.16434127 -0.009406012
000360 fb 8b 06 3b c3 3c 19 3e 29 e3 18 be c4 11 08 3e
       0.0020530212 0.14964585 -0.14930405 0.13288027
000370 d1 47 1b be c8 76 34 3e 29 08 16 3e b4 a2 04 bd
       -0.15164115 0.17623436 0.1465155 -0.03238173
000380 d3 4d 26 3e ac 64 6b 3d 4d 68 bf bd 92 e6 3e be
       0.16240625 0.057469055 -0.09346066 -0.18642643
000390 a4 a2 27 3e c3 06 ee bd 5e 66 2c be 44 77 d6 3d
       0.16370636 -0.116223834 -0.16835925 0.10471967
0003a0 5d 84 fa bb d8 35 08 be e4 9c 41 3e 4c 7e a5 bd
       -0.0076451735 -0.1330179 0.18907505 -0.0808073
0003b0 48 8c b8 bd 5c 93 94 bd f0 de c3 bd 1c ed d0 bd
       -0.090111315 -0.07254669 -0.09564006 -0.10201475
0003c0 5a a8 d8 bd bb a6 a0 bd 63 20 89 bd 9f 6c 57 3d
       -0.105789855 -0.07844301 -0.066956304 0.052593824
0003d0 a4 3e 33 bd 4b 38 f2 3d e5 e3 a9 bd 2a ab 2e 3e
       -0.04376091 0.11827143 -0.082954206 0.17057481
0003e0 09 31 22 3e b0 46 d0 3d 2a 97 89 bd 26 44 ea 3d
       0.15839018 0.101697326 -0.067182854 0.114387795
0003f0 9b 5b 1e 3e 75 14 53 bd 63 1e 0d bd 9f 60 f9 bd
       0.15464632 -0.05153318 -0.034452807 -0.12176632

block_1.0.bias f4 [10]
000000 d2 84 8a bd f3 a7 4a be ca 49 c6 bd a3 9f 19 3c
       -0.06763615 -0.1979063 -0.09682043 0.009376439
000010 c1 5c 7c 3d ed cb 0a be e4 66 3e bc c6 80 40 3e
       0.061611895 -0.13554354 -0.011621211 0.18799123
000020 4f d7 07 be d1 da 2c 3e
       -0.13265727 0.16880347

block_1.1.weight f4 [10]
000000 5b 93 7f 3f 99 26 80 3f 1c 6a 7b 3f 81 4a 7d 3f
       0.9983422 1.0011779 0.98208785 0.9894181
000010 55 ba 80 3f 0a 62 81 3f 9e 07 7e 3f a3 ad 81 3f
       1.0056864 1.0108044 0.9923037 1.0131115
000020 9b b6 7c 3f a4 06 83 3f
       0.98716134 1.0236402

block_1.1.bias f4 [10]
000000 a4 34 66 bd a1 16 e3 bc 0d 66 ab bc ed 8c be bd
       -0.056202546 -0.027720751 -0.020922685 -0.09304223
000010 96 dc 11 3d 7e 84 c5 3b 74 a7 86 bc 07 4c 14 bc
       0.035610758 0.006027757 -0.01643727 -0.009051329
000020 62 df 68 3d 88 64 9e bd
       0.05685366 -0.077340186

block_1.1.running_mean f4 [10]
000000 38 44 53 bc 9e b6 b4 bd 01 68 97 bd 2e e6 17 3d
       -0.012894683 -0.08823894 -0.07392884 0.03708475
000010 b0 33 9e 3e 68 d9 ba 3d 1f f8 16 3e 57 34 af 3b
       0.3089881 0.09123498 0.14743088 0.0053468156
000020 b9 f2 71 3e 17 a5 dc 3e
       0.23627748 0.43094704

block_1.1.running_var f4 [10]
000000 23 ee 94 3f 66 bb a9 3f d5 9b c8 3d 5d f9 9a 3f
       1.1635174 1.3260314 0.097953476 1.210735
000010 48 ab e6 3e 20 ff 31 3e 25 db 7f 3f bd e4 84 3f
       0.45052552 0.17382479 0.99943763 1.0382305
000020 82 46 fd 3e 9f be 8f 3e
       0.49467856 0.2807512

block_1.3.weight f4 [10, 10, 3, 3]
000000 12 36 c4 3c 7c 57 b9 3d db bd 17 bc db 16 ec 3c
       0.023951564 0.090498894 -0.009261574 0.028819492
000010 0f 33 59 3d 48 51 79 bb c8 5f ed 3d 26 ac 29 bd
       0.05302721 -0.0038042832 0.115905344 -0.04142394
000020 2b 47 fc bc 7f d1 db bd fc 04 d2 bb c4 13 c4 bd
       -0.030795654 -0.107333176 -0.0064092856 -0.095740825
000030 f3 51 3d 3d 1c 6c 24 3d be 9d 5e 3d 2e ff ba 3d
       0.04622073 0.040142164 0.054349653 0.09130703
000040 9a a0 6f bd 46 90 ae 3d 56 ef 98 bc 60 d5 9c bb
       -0.05850277 0.08523612 -0.018668812 -0.0047861785
000050 dd b1 ce 3d 32 22 a7 3c 96 8b 18 bd 01 d0 11 bc
       0.100925185 0.020402048 -0.037242495 -0.00889969
000060 06 52 7a bd 72 8d 15 3d 45 23 d4 3c a0 00 c0 3d
       -0.06111338 0.036511846 0.025895724 0.09375119
000070 8b 50 f1 3c 52 d8 fe 3c d1 70 fa 3d b1 77 23 3d
       0.029457351 0.031109009 0.12228549 0.03990907
000080 5b 88 8a 3c 20 d0 81 bd f3 a0 bf 3d e2 22 e5 3b
       0.016910722 -0.06338525 0.093568705 0.0069926837
000090 4f 13 97 bd 7d 76 99 3c fe 9d 91 3d c3 26 5c 3c
       -0.0737673 0.018733257 0.07110213 0.013436976
0000a0 aa 25 7d 3d 53 5e 81 3d 04 de c1 3d 6e 02 3e bd
       0.061803497 0.06316819 0.09466174 -0.046389036
0000b0 9c c3 d5 3d 8e 55 29 bd 76 62 25 bd 9f e1 94 bd
       0.104377 -0.041341357 -0.040377103 -0.07269596
0000c0 59 95 79 bd a6 9d 90 bd dd 94 c6 3d 0e fb af bb
       -0.060933445 -0.07061319 0.09696362 -0.005370504
0000d0 5e 28 98 bc b2 bd 44 bd ce 4d 3b bd 08 aa ed ba
       -0.018573936 -0.04803247 -0.045728497 -0.0018132338
0000e0 cd 28 36 bc b6 98 29 3c 3f b1 b3 3d 06 d5 f7 3c
       -0.011118126 0.0103513505 0.087740414 0.030252945
0000f0 70 80 8b bd 24 4a a1 bd ed 69 b8 bd 4e 77 c4 3d
       -0.06811607 -0.07875469 -0.09004579 0.09593068
000100 cd aa 8a 3c c8 2f 9d bb a1 5a 40 bb 74 7e c8 3d
       0.016927147 -0.0047969557 -0.0029350894 0.09789744
000110 18 8f 0a 3e 3b 79 60 3d c2 7c 9d 3c 6b 87 ca 3d
       0.13531148 0.054803114 0.019224528 0.0988911
000120 d4 c5 96 3d 58 8c e2 bc 18 09 f0 3c d6 ad e2 3d
       0.073619515 -0.027654812 0.029301211 0.11068313
000130 bd d8 2b 3d 2d 00 10 3c 04 db b2 3d fb 51 0a bd
       0.041954745 0.008789104 0.0873318 -0.03376959
000140 e4 e5 a7 3d 4a 32 99 bd 88 b9 89 bd fe 0b 60 bd
       0.08198145 -0.07480295 -0.067248404 -0.054698937
000150 b1 94 9c bd a3 a8 b6 b9 36 03 e5 3b 20 f8 0a bd
       -0.07645548 -0.0003483939 0.006988908 -0.033928037
000160 e0 90 e0 bd d0 d9 a6 bd c3 28 73 ba 36 0c a8 bd
       -0.10965133 -0.08147013 -0.00092757883 -0.08205454
000170 fd 0f 84 3d f5 93 c6 3d 92 ad 96 bd 44 7a 80 3d
       0.06448362 0.09696189 -0.07357325 0.0627332
000180 c7 0e 63 bd 01 57 ce bb 21 98 8e bd 95 56 b6 3d
       -0.055434015 -0.006296993 -0.0696261 0.08903233
000190 c4 e2 90 3d 7c 1f 33 3d 79 13 16 3e 52 cb 83 3b
       0.07074502 0.043731198 0.14655866 0.0040220404
0001a0 e5 fe 0d bd d4 82 00 3e 05 55 19 3c 3f db 1f 3d
       -0.034666914 0.12549907 0.009358649 0.03902745
0001b0 65 9b 56 3b 37 ae 5c 3d 10 98 3c bb 04 c6 e5 bc
       0.003274643 0.05387708 -0.002877716 -0.028048523
0001c0 41 a8 36 3c 57 cf d3 bc f2 4f 8c bd 16 85 39 bd
       0.011148513 -0.025855703 -0.06851186 -0.045292936
0001d0 58 2f a6 bd ba 6c ee bc b1 01 65 bc 87 28 c6 3d
       -0.08114499 -0.02910458 -0.013977454 0.09675699
0001e0 82 bd 27 bc b0 5b b2 bd 8d 4a ce bd e5 86 c4 bd
       -0.010238053 -0.08708894 -0.10072813 -0.095960416
0001f0 55 d2 d5 3d 03 ed 9e 3d 0b e5 c7 3d a4 e6 7f bd
       0.10440508 0.0776005 0.09760483 -0.062475815
000200 46 86 84 bc f3 9d e2 bc a0 a0 54 bd f7 02 0b 3e
       -0.016177308 -0.027663207 -0.051910996 0.1357535
000210 a4 0b b8 3d 03 94 ab 3d 0a 69 04 3e ac 76 3b 3d
       0.08986595 0.0837784 0.12930694 0.04576747
000220 3f f5 d2 bd 8d 67 82 bd 2f 66 d5 bd 1b 5c 31 3d
       -0.10300683 -0.06367407 -0.104198806 0.04330073
000230 73 6c 87 bd 0c ab 53 bd e2 11 ba bd 98 7c 50 bc
       -0.06612482 -0.051676795 -0.09085442 -0.012725018
000240 8f 5e d5 3d b5 24 ed bc 7b 5c 4a 3d 05 a8 ac 3d
       0.10418426 -0.028948167 0.049404602 0.08430485
000250 e2 48 32 bb da da b7 3d ab 39 d4 3b e8 93 f8 3d
       -0.0027204086 0.089772895 0.006476601 0.12137586
000260 1a 76 fd bc a5 33 a6 3c 2b c0 90 3b 81 b8 31 bd
       -0.030940104 0.020288298 0.0044174395 -0.043388847
000270 29 fa 36 3d 87 d4 eb bc cc fb 97 3d 21 f4 46 3c
       0.044672165 -0.028787864 0.07421073 0.012143166
000280 2c 0c d3 3d f4 73 fd 3c 8e b9 c7 bd 22 af e4 3d
       0.10305056 0.03093908 -0.097521886 0.111662164
000290 6f 8a f7 bc 9f 27 02 bd 30 8e b1 3c 37 43 92 3d
       -0.030217377 -0.031776067 0.021674246 0.071417265
0002a0 ec b0 1f 3d df e0 14 bd 63 5b 79 bd 78 84 2f bd
       0.038987085 -0.036347266 -0.06087817 -0.04285094
0002b0 bc 05 24 3d 62 46 8d 3c 9d 4e 10 3d 7e 0d 9d 3d
       0.04004453 0.017245475 0.03523122 0.07668589
0002c0 7e f6 9b 3d 80 1a 88 3d 9a af d9 3c 77 bf f5 bc
       0.07615374 0.066456795 0.026572991 -0.029998524
0002d0 73 87 33 bd 2b 3d 4d 3d 59 97 e3 3d 2e ef e3 3d
       -0.043830346 0.050107162 0.11112852 0.11129604
0002e0 96 ac 45 bd 39 03 29 3d aa 45 8d bd 1b 0b c1 3d
       -0.048260294 0.04126284 -0.06898053 0.09425946
0002f0 71 ff 87 3d 85 d0 92 bd 7b d3 02 3d 5e 1d da 3d
       0.066405185 -0.07168678 0.031939965 0.106501326
000300 04 18 5b bd 9c bd 64 3d 95 4f bb bd 81 e2 ba bd
       -0.0534897 0.055844888 -0.091460384 -0.091252334
000310 ff 55 2b bb e1 23 ba 3d eb 72 b4 3c 91 f9 e4 bd
       -0.0026143787 0.090888746 0.022027453 -0.111804135
000320 11 24 ac 3d ab f4 5c 3d 73 03 25 3d 4e 62 ab bd
       0.084053166 0.05394427 0.040286493 -0.083683595
000330 91 24 29 bd 6b 9a 8e bd c8 80 77 bd 2d 28 a2 3b
       -0.041294638 -0.06963047 -0.06042555 0.004948637
000340 69 8b cc 3d 11 58 f1 3d 1d 61 c5 bc 74 54 2a 3b
       0.09987528 0.117843755 -0.024094159 0.002599028
000350 b7 e6 bf bc 67 6e f8 3d 33 d4 1c 3c d3 f9 74 bc
       -0.023425443 0.121304326 0.009572077 -0.014952141
000360 67 8f 0a bd 10 1d f1 bc 75 a0 a8 3d fb ca a3 3d
       -0.033828165 -0.029432803 0.0823373 0.079977
000370 89 0c ba 3d 76 60 4b 3d b5 21 2e bd c5 1d ad bd
       0.09084422 0.04965254 -0.042512614 -0.08452944
000380 f4 75 0c bd ed d4 f3 3c 8a a2 fe ba 33 eb f6 bd
       -0.034292176 0.029764617 -0.0019427103 -0.120565794
000390 00 75 98 3d 2e ce af 3d 25 d3 f9 3c bb a3 57 bd
       0.07444191 0.085842475 0.03049619 -0.05264638
0003a0 ab c4 37 bd c0 20 2e bd bb 07 03 3d 85 91 91 bd
       -0.04486529 -0.0425117 0.031989794 -0.07107834
0003b0 4f 33 81 3c 9e f6 4a bb d9 25 2a 3d 45 0a 92 bd
       0.015771536 -0.003096975 0.04154 -0.07130865
0003c0 b3 3a 1a bd 4b c6 45 3d 02 d5 9f bd be 33 db 3d
       -0.037653636 0.04828481 -0.078043 0.107032284
0003d0 28 ad c4 bc 86 20 4d 3d bb 0a cc bc 02 f4 3d 3d
       -0.024008349 0.050079845 -0.02490746 0.046375282
0003e0 e5 86 b2 3d f0 0c ab 3d ce 0d d0 bc 44 ab 6d 3d
       0.08717135 0.08352077 -0.025397208 0.05802466
0003f0 79 3e 9b 3d b3 ba a0 bd 55 df c9 bb ab 6b 02 3d
       0.07580275 -0.0784811 -0.0061606565 0.03184096

block_1.3.bias f4 [10]
000000 e6 60 46 3d 4f 95 a6 bd a5 85 42 3d 39 a5 69 3c
       0.048432253 -0.08133947 0.047490735 0.014260584
000010 48 73 af 3d 77 04 93 3d f3 4d e1 3d 46 24 01 bb
       0.0856691 0.07178586 0.11001196 -0.0019705459
000020 7e 38 b9 bc a3 e8 28 3d
       -0.022609945 0.041237485

block_1.4.weight f4 [10]
000000 1b 9b 7f 3f bd 9e 7d 3f be 42 7b 3f 0f 7f 80 3f
       0.9984605 0.9907034 0.98148715 1.0038775
000010 97 0f 80 3f bb 3b 7b 3f 06 d5 7f 3f e3 8e 84 3f
       1.0004758 0.98138016 0.9993442 1.0356106
000020 7b 52 80 3f a8 91 78 3f
       1.0025171 0.97097254

block_1.4.bias f4 [10]
000000 23 00 01 be e8 99 65 bd a6 0e dc bc 59 29 c5 bd
       -0.12597708 -0.05605498 -0.026862454 -0.09627027
000010 32 ba a3 bc d8 1f 5c bc d9 6e 00 3d f4 b2 89 bd
       -0.019986246 -0.0134353265 0.031355713 -0.06723586
000020 75 97 4c bd 2a 68 76 bd
       -0.04994913 -0.060157932

block_1.4.running_mean f4 [10]
000000 ac 87 e6 3e d6 5d bc 3e 76 c2 44 3e 3d 85 ba bb
       0.45025384 0.3679034 0.19214806 -0.005692153
000010 c9 a0 5f be 87 db 94 be 3c 4d 4f be bd 82 d9 3e
       -0.21838678 -0.29073736 -0.20244306 0.42482558
000020 53 ee 00 3f 6d 35 42 bc
       0.50363654 -0.011853558

block_1.4.running_var f4 [10]
000000 37 47 8a 3e a7 54 88 3e 1a 63 a2 3e a3 76 29 3e
       0.27007458 0.26627085 0.31716233 0.16549163
000010 c2 f9 14 3f 23 b0 f6 3e 0e 62 c6 3e 61 92 e0 3e
       0.581936 0.48181257 0.38746685 0.43861678
000020 ae 8a a2 3e 0b 34 74 3e
       0.3174643 0.23847978

block_2.0.weight f4 [10, 10, 3, 3]
000000 df 31 54 bd 05 90 04 bc 1d 85 b1 3c 42 22 ba bc
       -0.051805373 -0.008090978 0.021669919 -0.022721414
000010 5f 9a 3d bd 06 78 f4 3c 59 26 8c bd b1 4d 8c 3c
       -0.046289798 0.029842388 -0.06843252 0.01712689
000020 20 00 46 3d 00 6f 4d 3d 9d ef 90 3d c0 e0 99 bd
       0.048339963 0.050154686 0.070769526 -0.07513571
000030 40 d9 5f bd 86 f4 58 bd 2d e6 5d 3c 02 18 dd bd
       -0.054650545 -0.05296757 0.013543648 -0.10795595
000040 21 d9 b1 bd 7d cd 0f 3d 84 4a 42 3d de 1b 1e 3d
       -0.08683992 0.03510808 0.047434345 0.038600795
000050 3e 56 d4 3c 43 67 b2 3d 14 0d ba bd 7a 27 a6 bd
       0.02592003 0.08711102 -0.09084526 -0.08112998
000060 c7 6e bd bb 4a 99 51 bc 3d 4a bc bc 19 2b b2 3d
       -0.005781028 -0.012792895 -0.022984618 0.086996265
000070 1f 06 c2 3d ea 78 9b bd 02 a4 1c bd 60 69 cc 3d
       0.09473824 -0.07591422 -0.038242348 0.09981036
000080 5e 89 ad 3d 55 ac 26 3c bf 13 f2 3c ff 09 ed 3b
       0.08473466 0.010172923 0.029550431 0.0072338576
000090 bf 6f 0a bc ac 3b 0a 3e d5 5f 24 bc 00 7c d3 bc
       -0.008449494 0.13499326 -0.010032614 -0.025815964
0000a0 d4 db 79 3d 8a 9b 6f 3c 2a 9c 99 bd b8 04 45 bd
       0.06100066 0.014624486 -0.07500489 -0.048100203
0000b0 7f fd 3f bd 29 1b 5c bd 20 84 57 3d 3b 2e a1 3d
       -0.046872612 -0.05373684 0.05261624 0.07870146
0000c0 73 8c 89 bd 05 d7 61 3d 46 34 7d bc 27 b2 bb bd
       -0.06716242 0.0551367 -0.0154543575 -0.09164839
0000d0 4e b5 4c 3d 7d 59 60 bd 66 76 74 3d f3 60 37 bd
       0.049977593 -0.054772843 0.059683226 -0.044770192
0000e0 1f 5c 6c bd c8 ac b2 3d 90 c6 29 3d f5 10 d3 bc
       -0.05770504 0.08724362 0.04144913 -0.025764922
0000f0 f9 30 53 3d 55 ea b5 bd 57 21 61 3d e2 58 4e 3d
       0.051560376 -0.08882586 0.054963436 0.050377734
000100 86 3c 29 bc 39 f3 e4 3d 53 2f 8f 3d dc 82 8b bb
       -0.010329371 0.111792035 0.06991448 -0.004257543
000110 60 22 8a 3d 91 5e e6 3d 1e 0d 0e 3d 23 95 95 bd
       0.06744838 0.11248506 0.03468048 -0.07303836
000120 2e 7e df 3c 52 2e 12 bc 04 61 e8 bd f1 dd 68 bd
       0.027281847 -0.008922176 -0.11346629 -0.056852285
000130 ec 22 76 3d f8 96 5e bd e8 64 26 3d 8f 06 c4 3c
       0.060091898 -0.054343194 0.040623575 0.023928909
000140 64 65 a8 3c 14 fa a2 3d bc 02 7e bd a6 27 5b 3d
       0.02055616 0.07957855 -0.062014326 0.05350461
000150 f5 60 1d bd 00 70 00 bd 81 31 e3 bd a7 a4 a1 bd
       -0.038422544 -0.03135681 -0.110934265 -0.07892733
000160 71 e6 45 3d 46 6c 10 bd de a1 44 bd 6c c2 30 3c
       0.04831547 -0.035259508 -0.04800593 0.010788541
000170 4b 73 bf bd 71 b1 a1 bc 42 73 f9 3c 61 4a be bd
       -0.09348162 -0.019737931 0.030450467 -0.092915304
000180 78 83 d6 3c e4 a5 08 be a1 6d 03 be 36 c7 75 bd
       0.026185736 -0.13344532 -0.12834789 -0.060004435
000190 33 f7 31 3d a1 d0 16 bd ee 3c 80 bd b2 7f 24 bd
       0.04344864 -0.036820058 -0.062616214 -0.040160842
0001a0 70 8b d7 3c 52 a7 fd 3c a3 9c 90 3d 71 2a c0 3b
       0.026311606 0.030963574 0.07061126 0.0058644344
0001b0 c3 9f fb bd 93 e2 9a 3a bf 92 0a 3d 43 87 5a bb
       -0.122863315 0.0011816792 0.033831354 -0.0033344782
0001c0 64 3e ee bd 97 ea f3 bd d6 e1 64 3d 22 e5 00 be
       -0.11632994 -0.11909979 0.055879436 -0.12587407
0001d0 5e 1c 55 3d 72 09 51 bc d3 75 fc bc 76 86 8f 3d
       0.052029006 -0.0127586 -0.030817902 0.07008068
0001e0 3e ae 92 3d ae ff a4 3d de 22 90 bc 50 f4 19 3c
       0.0716214 0.080565795 -0.017594751 0.009396628
0001f0 97 77 36 bd 3a ca 9f 3d ae 9b ef bd b7 de f9 bd
       -0.044547644 0.078022435 -0.116996154 -0.122006826
000200 49 b3 f8 bc c8 df c4 3c c7 42 05 bb 5f 5a ac bc
       -0.030358927 0.024032488 -0.0020333992 -0.021039186
000210 7f ba 02 be 1e 8f d7 3c 95 79 43 bd 06 ef cf bd
       -0.12766455 0.02631336 -0.04772337 -0.10153012
000220 db ab a9 3c ed aa 9e bd a1 18 61 bd 23 53 97 bd
       0.02071183 -0.07747445 -0.05495513 -0.07388904
000230 ef b8 0d 3d a6 77 9e bd 3b 0a cf bd c3 00 ea bd
       0.034600195 -0.07737665 -0.10109373 -0.114259265
000240 72 a7 5c bd 01 fb db bd 74 fb ab 3c 5c 13 ea 3c
       -0.053870626 -0.107412346 0.020993926 0.028573684
000250 d7 81 6e 3d bb 13 f8 bd 2e 95 ca bc c4 ce 98 bd
       0.058229294 -0.12113138 -0.024729338 -0.074613124
000260 18 1e 6f 3d 35 01 ec 3d 16 80 81 bd 08 fe 68 bd
       0.05837831 0.11523668 -0.063232586 -0.056882888
000270 73 52 33 bd da 7b e7 bb 2d e4 8d 3d 2f 88 c6 3c
       -0.0437798 -0.007064325 0.06928287 0.02423486
000280 31 31 63 bd 2c c2 d4 3d ba 7c fa 3c 5e 50 1b 3d
       -0.055466834 0.10388598 0.030577052 0.03791844
000290 c1 bd 36 3c e9 ed 69 bc 80 1f 5d bd 83 ef bf bc
       0.011153639 -0.014277914 -0.05398512 -0.023429638
0002a0 62 24 1b bd 42 66 7c bb d7 a2 3d bc ae f6 a5 bd
       -0.037876494 -0.00385131 -0.011574469 -0.08103691
0002b0 cf c5 79 bd 47 1f 1f 3d 86 3a 91 bd ca cc 82 bd
       -0.06097966 0.038848188 -0.070912406 -0.06386717
0002c0 a7 ba 0c bd 77 60 b1 bd 7f 6c ae bc cf 04 49 3d
       -0.034357693 -0.08660977 -0.02129197 0.04907685
0002d0 f3 0b 56 3d b8 6f 30 bd 84 bd 6d bd fe 52 db 3b
       0.05225749 -0.043075293 -0.058042064 0.006693243
0002e0 e9 bb 1a bd 6c e6 16 bd f8 0b 92 3d 37 d8 8f 3d
       -0.03777686 -0.03684084 0.07131189 0.070236616
0002f0 15 57 8c 3d 81 a5 b2 bc 31 0b c7 3d 8f 35 a3 3c
       0.06852547 -0.021807434 0.097189315 0.019923
000300 15 03 42 3d 90 c7 66 3d 48 da 31 3d ed a1 3c bd
       0.04736622 0.05634266 0.04342106 -0.046052862
000310 82 45 6b bd bc 62 fb bc a4 cf af bd 0b d8 76 3d
       -0.057439335 -0.030686729 -0.08584526 0.06026463
000320 57 b9 06 3d 7f 17 00 bd 86 3f 31 bd 44 12 bb bd
       0.032891598 -0.031272408 -0.04327347 -0.09134343
000330 2f 99 d7 bd 07 49 97 3b 7d c5 86 3c 8f 49 29 3c
       -0.10527264 0.00461686 0.016451592 0.010332479
000340 5f d9 02 3d 16 61 f6 ba 96 1a 04 3e 00 90 91 3c
       0.031945582 -0.0018797244 0.12900767 0.01776886
000350 ea 57 e8 3d 98 fb 7d 3d 36 69 35 bd 5f 67 b7 3d
       0.11344893 0.062007517 -0.04428979 0.08955263
000360 8b 60 f0 3b ee 79 07 bd 99 6c 9e 3d 84 78 84 bd
       0.0073357276 -0.033075266 0.07735557 -0.06468299
000370 fb bb c3 3d fc 46 9a bb 62 18 40 bd db e7 c8 bc
       0.09557339 -0.004708169 -0.046898253 -0.02452462
000380 6a 08 7f 3d 69 c3 a2 bc ed 84 d7 bb 30 09 9a bc
       0.062263884 -0.01986857 -0.0065771253 -0.018803209
000390 93 b3 e5 3b e5 b4 c2 39 3f 64 eb bc ed ff cd 3d
       0.0070099323 0.0003713734 -0.028734324 0.100585796
0003a0 e5 60 39 bd 78 00 a1 bd e6 b0 c1 3c cd 07 05 b9
       -0.04525842 -0.078614175 0.023643922 -0.00012686774
0003b0 1c b9 06 3d e7 40 26 bd 27 19 69 bd 01 6a 65 3d
       0.032891378 -0.04058924 -0.056908753 0.056009296
0003c0 f7 ed 7a 3c 42 59 76 3d b4 94 87 bd 45 9b 76 bc
       0.015315524 0.060143717 -0.0662016 -0.015051668
0003d0 2e f8 0c 3e c8 c9 17 3e 9a 21 0e 3d 54 37 02 bd
       0.13766548 0.14823067 0.034700014 -0.031791046
0003e0 97 de 8e 3d a8 b0 21 bd ea 09 e7 3d f2 e0 e0 3d
       0.069760494 -0.039475113 0.11281188 0.10980405
0003f0 6d e9 6a bd 90 0d 89 3d 94 b5 9a bd 5c 7a 86 bd
       -0.05735152 0.0669204 -0.075541645 -0.06566307

block_2.0.bias f4 [10]
000000 b0 45 e0 bc 6a 8c d6 3d 72 67 b9 3d be 2c 9d 3d
       -0.02737698 0.104760006 0.09052934 0.076745495
000010 d9 6d 83 3d db 2b 8d bd 73 e9 52 3d 6a 81 5d 3d
       0.06417436 -0.068931304 0.051492166 0.054078497
000020 f1 d3 e5 3b b7 33 40 3d
       0.007013791 0.04692432

block_2.1.weight f4 [10]
000000 8f 01 7f 3f 29 5c 77 3f 74 59 7d 3f d7 ee 7e 3f
       0.99611753 0.96625 0.9896462 0.9958319
000010 c3 a4 81 3f a5 94 82 3f 31 d5 7e 3f 70 fd 87 3f
       1.0128406 1.0201613 0.99544054 1.0624218
000020 85 a8 72 3f 62 5b 76 3f
       0.9478839 0.9623319

block_2.1.bias f4 [10]
000000 37 e2 d9 bc b1 48 5f bc aa e3 24 be 38 10 2a bd
       -0.026597125 -0.013628171 -0.16102472 -0.041519374
000010 81 e5 8e bd a1 cd c0 bd 3c d3 98 b9 4c 17 01 bc
       -0.06977368 -0.094142206 -0.0002914908 -0.00787909
000020 60 f1 3e bc 01 f2 dd bc
       -0.011654228 -0.027092936

block_2.1.running_mean f4 [10]
000000 51 95 7c 3d c2 a9 4d bf ad d9 d1 3e 8e 70 3c 3f
       0.061665837 -0.80337155 0.40986386 0.73609245
000010 01 f7 44 3f da 20 97 3e c7 82 52 bf e9 1f bc 3e
       0.769394 0.2951725 -0.822308 0.36743096
000020 6f 75 28 bf 16 49 74 3e
       -0.6580419 0.23856005

block_2.1.running_var f4 [10]
000000 b0 1a ce 3e c9 60 a9 3f c8 05 2c 3f 9c 7a 31 3f
       0.40254736 1.3232661 0.6719632 0.6932771
000010 be c2 75 3f be 23 58 3f 38 50 c2 3f 06 53 a9 3f
       0.9600028 0.8442954 1.5180731 1.3228462
000020 41 a7 51 3f dc c2 59 3f
       0.81895834 0.85062957

block_2.3.weight f4 [10, 10, 3, 3]
000000 2d b5 be 3c 66 61 96 3d 0b ba 1c bd ef 07 cc bd
       0.02327975 0.07342796 -0.038263362 -0.09962451
000010 23 ac b0 3d 30 0e 6f bd c0 45 c2 3d 0c e5 df 3d
       0.086265825 -0.05836314 0.0948596 0.10932359
000020 5c 7c 7d 3d ca 31 85 3d 66 8d a6 bd 13 1d 82 bd
       0.061886176 0.06503637 -0.08132438 -0.06353202
000030 e8 52 7a 3c da 5c 90 3c 51 f2 45 bc 18 41 5b bd
       0.015278555 0.0176224 -0.0120816985 -0.053528875
000040 f1 6d 17 3d cc c1 72 3d 4d 45 13 bd db dd b2 bc
       0.036970083 0.05926685 -0.035954762 -0.021834305
000050 fb 0a 69 bd fa a5 bd 3c 44 fa 4c bd 4a 03 9e 3d
       -0.056895237 0.023150433 -0.05004336 0.07715471
000060 2a 55 d3 3d 2f 18 b7 bc ee 80 9c 3d 15 7b be 3c
       0.10318978 -0.022350399 0.07641779 0.02325205
000070 db 2e f1 3b 21 c2 89 3d 2c 94 7b bd a7 8b 95 bd
       0.007360322 0.0672648 -0.061420605 -0.07302027
000080 51 1f 3d bc 46 0c d0 3c d5 48 a4 3d 5e 50 c3 bd
       -0.011543111 0.025396477 0.08021704 -0.09536813
000090 17 e7 a7 3d b1 da 76 3d 88 26 06 3a 1f 7d ba bd
       0.08198374 0.060267154 0.0005117436 -0.09105896
0000a0 63 a0 c9 bd f6 37 0f 3c 19 8b fc 39 50 7d 93 3d
       -0.098450445 0.0087413695 0.0004816882 0.07201636
0000b0 79 3a 8b 3d ea cb d6 3c 73 f6 6c 3c 6b 0c 73 bd
       0.06798262 0.02622028 0.014463055 -0.059338015
0000c0 29 e3 90 bd 0d 11 ab 3d 15 97 87 ba 14 9f cd 3d
       -0.07074577 0.083528616 -0.0010344709 0.10040107
0000d0 84 ba 6a bd 69 f8 ce bd 71 49 81 3d b3 f4 cd 3c
       -0.05730678 -0.10105974 0.06312836 0.025141096
0000e0 60 85 b6 3d 6b fd 5f 3d df 64 b7 bc 61 6f e7 3c
       0.08912158 0.054685038 -0.022386966 0.028251352
0000f0 9b ed 0c 3d 56 99 b8 3c 63 f6 8b bc e6 43 4a bc
       0.034406286 0.022534054 -0.01708526 -0.01234529
000100 e6 e7 26 bd 23 dd f2 bd 48 8a 10 be 67 9f 21 be
       -0.0407485 -0.11858585 -0.1411525 -0.15783463
000110 fa 58 04 be 1b 23 32 bc a7 72 e7 bd f9 b6 39 be
       -0.12924567 -0.010872628 -0.11301165 -0.18136205
000120 ee 37 3e 3d 6e 0a 15 3d c7 46 3c 3d 9a 4a 3a 3d
       0.046440057 0.0363869 0.045965936 0.0454813
000130 12 b2 f9 bc 88 1e 1f 3d ab 9d 94 bd c2 83 5c 3d
       -0.030480418 0.038847476 -0.07256635 0.05383659
000140 93 8d 08 bc 35 a1 27 bd 8a bc 77 3d ef 5f bf bc
       -0.008334535 -0.040925223 0.06048254 -0.023361174
000150 ee d9 c1 3d 5b 9e a5 bd 9d 42 16 bc 47 70 ba 3d
       0.09465395 -0.080868445 -0.009171155 0.091034465
000160 86 a1 a9 bc 7b bf 2f bc fc d7 f9 bd bb 68 6f 3d
       -0.020706903 -0.010726805 -0.12199399 0.058449488
000170 14 d6 d7 bd 6e c2 bc bd ef d6 e1 3b 71 ed fe 3b
       -0.10538879 -0.09216772 0.006892077 0.00777977
000180 09 e6 bb bd c1 77 02 be d4 53 cc bd 8f 21 57 3d
       -0.09174735 -0.12740995 -0.099769264 0.05252224
000190 ad cc d3 bd 49 4a 2e 3d d0 aa 31 3c b4 ca 93 3d
       -0.10341773 0.042551313 0.0108439475 0.07216397
0001a0 1f 6a c5 bd 36 bc 34 bd cf 86 d4 bc f9 46 2c bd
       -0.096393816 -0.044124804 -0.025943188 -0.042059872
0001b0 67 fc 02 be f8 35 0e 3d 67 2a af bd 0c b4 30 bd
       -0.12791596 0.034719437 -0.085530095 -0.043140456
0001c0 2a 0a c7 bc 3b 91 5c bc 2a 54 93 bb 9d 99 c0 bd
       -0.024296839 -0.01346236 -0.004496117 -0.094042994
0001d0 3c 69 18 3d c3 33 4a bd fa f1 60 3d c4 40 cc bc
       0.037209734 -0.04936577 0.054918267 -0.024933226
0001e0 3d 36 c6 bd aa 66 f5 3c 98 d5 a3 3d a8 bd b3 bd
       -0.09678314 0.02995618 0.07999724 -0.087764084
0001f0 23 18 06 bd d5 47 b3 bd ab e9 fd 3c a7 01 0a 3c
       -0.032737862 -0.08753935 0.03099521 0.0084232455
000200 ec de bc 3b 46 f8 50 bc 1e 77 a9 3d d3 85 c1 3d
       0.005763879 -0.0127545055 0.08274673 0.09449353
000210 27 ef af bd 77 07 d4 3d 1e 88 71 bd ff a1 8e bd
       -0.085905366 0.10352986 -0.058967702 -0.06964492
000220 b0 30 0f be 63 10 36 3d 99 c8 a5 3c 1b 09 e2 bd
       -0.13983417 0.04444922 0.020237254 -0.11036893
000230 e8 e9 c9 bc b1 23 a5 bd 0c 24 9d bd c5 78 fb bd
       -0.024647668 -0.08063448 -0.07672891 -0.12278894
000240 56 36 13 bd f1 24 06 be 65 1a 5a 3a 30 74 97 bd
       -0.03594049 -0.1310003 0.0008319973 -0.07395208
000250 21 7a 2f 3d 0a 69 11 be 5f 02 72 bd 12 c6 92 bd
       0.04284108 -0.14200225 -0.059084293 -0.07166685
000260 ff a4 d4 3c 25 80 96 3d 58 e7 de 3c d3 bc 05 bd
       0.025957583 0.073486604 0.027209923 -0.03265078
000270 a1 4d 53 3a 11 a6 eb 3c c6 25 27 3d ec 1f 95 3d
       0.0008060579 0.02876571 0.040807508 0.07281479
000280 16 17 3a 3a bb 65 e9 3d 33 59 66 3d c2 5b 43 3d
       0.0007098777 0.11396357 0.05623741 0.04769493
000290 6a 21 3a 3d 85 0f 8d 3b cc 47 6c 3d 79 0b 2d bd
       0.045442022 0.0043048286 0.05768566 -0.04224727
0002a0 ee 87 11 3d 6c c5 2b 3d 0f 6c 91 3d ce e1 e9 3c
       0.035530023 0.041936323 0.07100689 0.028550055
0002b0 82 2a 82 bd 05 fe db bd 0a 83 ee 3c 56 94 f2 bc
       -0.06355764 -0.1074181 0.029115219 -0.029611748
0002c0 a7 8b d7 bd 98 e8 04 be 0f db d4 bd 95 09 3d 3d
       -0.105246834 -0.12979352 -0.103933446 0.046151716
0002d0 d9 49 cf 3c 39 23 00 3d a7 ad b7 3d d9 4b 32 bc
       0.025303768 0.03128359 0.089686684 -0.010882341
0002e0 c8 b4 f0 3c 75 2d 87 3d cc b1 64 3d a6 db af ba
       0.029383078 0.06600467 0.055833623 -0.0013416901
0002f0 ed b8 37 3d b6 97 a7 bc 65 94 bb bd f7 82 13 3d
       0.044854093 -0.020458084 -0.091591634 0.03601357
000300 7f d0 24 bc 98 c7 99 bd c2 bf 11 3d 8d a0 da 3c
       -0.010059475 -0.075087726 0.035583265 0.026687885
000310 a2 c6 4a 3d f5 0d 78 bd 62 c4 44 bd 49 8f 9e bd
       0.049505837 -0.060560185 -0.048038848 -0.07742173
000320 84 24 42 3d 83 21 20 3c ac 96 38 bc 1d b2 aa 3b
       0.047398105 0.009773615 -0.011266392 0.005209221
000330 66 42 47 bd 46 4d 8a 3a 22 bd 5c bb 18 45 f2 bd
       -0.048647307 0.0010551594 -0.0033682068 -0.11829585
000340 95 28 f5 bd 04 31 d4 3c 0b a9 20 be e9 a7 08 be
       -0.11970631 0.025902279 -0.15689485 -0.13345303
000350 87 fd 90 bc ce c2 c9 bd 46 c1 0d be b8 ea 0a bd
       -0.017699016 -0.09851609 -0.13843259 -0.03391525
000360 45 fb 54 bd e1 57 45 3c 8e be 92 bd cb e8 0f be
       -0.05199744 0.012044878 -0.07165252 -0.14053647
000370 7f f0 a5 bd 2b 52 c3 bd 89 58 d3 3c 4f f1 07 be
       -0.081025116 -0.09537157 0.025799053 -0.13275646
000380 f0 a9 16 be a4 53 61 3c 8d fb eb bc 69 0d c9 3d
       -0.14713264 0.013752852 -0.028806472 0.09817011
000390 f8 6f 6c bd 8b 79 d0 bd 39 4c 7c 3c e2 db 7e 3c
       -0.05772397 -0.101794325 0.015399032 0.015555354
0003a0 19 6a c4 3d b7 5d 6f bd b3 03 c9 3b 8e 57 9b bd
       0.09590549 -0.058438983 0.006134474 -0.07585059
0003b0 f6 a8 91 3c 18 9a 61 3d ec 82 4c 3c e8 be 7f 3d
       0.017780762 0.055078596 0.012482386 0.06243792
0003c0 e0 19 c5 bd 96 2d 0f 3d 88 5f 7c 3c f2 59 b4 3d
       -0.09624076 0.034955584 0.015403636 0.08806218
0003d0 22 a5 4c 3d 41 8d 0c 3c 18 77 bd 3d 25 6d 60 3c
       0.04996217 0.008578599 0.09251231 0.013697897
0003e0 ce 74 e9 3c a0 60 21 bb e7 94 1d bc f6 56 81 bd
       0.02849808 -0.0024624243 -0.009618021 -0.063154146
0003f0 68 64 90 bd 22 9b 8a bd c5 6c 9e 39 7f c8 19 bc
       -0.07050401 -0.067678705 0.00030217148 -0.009386181

block_2.3.bias f4 [10]
000000 11 41 97 bc 56 1a b1 3d 86 73 e9 bd 82 7a 33 3d
       -0.018463643 0.08647601 -0.113989875 0.043818004
000010 04 42 54 bd 80 d0 82 bd 2b eb 8c bd e9 3d 4d 3c
       -0.05182077 -0.063874245 -0.06880792 0.012526968
000020 2f e2 da bd ae 77 85 ba
       -0.10687672 -0.0010182762

block_2.4.weight f4 [10]
000000 3b 3e 55 3f fd 22 65 3f 1d e1 5d 3f d3 09 58 3f
       0.8329808 0.8950651 0.8667162 0.8438999
000010 9f 0d 5b 3f 81 0e 6a 3f 98 75 65 3f 13 09 5b 3f
       0.8556766 0.9142838 0.8963256 0.8556072
000020 39 88 62 3f dc 03 63 3f
       0.8848911 0.88677764

block_2.4.bias f4 [10]
000000 03 64 51 be 85 18 e2 bd 6f da 36 be 5a 3b 44 be
       -0.20448308 -0.11039833 -0.17856763 -0.19163266
000010 a7 bd 3a be 3b c2 d6 bd 2c c6 08 be 33 ba 35 be
       -0.18236409 -0.10486265 -0.13356847 -0.1774681
000020 4c 00 0c be fc ad 11 be
       -0.13671988 -0.14226526

block_2.4.running_mean f4 [10]
000000 09 1f 89 bd a4 2b f5 be 98 70 0b bf a9 15 95 be
       -0.066953726 -0.47884858 -0.5446868 -0.29118088
000010 2c fd b5 be 43 61 9e be 37 82 fe be 09 a3 be be
       -0.35544717 -0.3093358 -0.4970872 -0.3723376
000020 16 c6 fe be 80 e2 24 bf
       -0.49760503 -0.6440811

block_2.4.running_var f4 [10]
000000 44 fa 31 3f f4 83 0f 40 42 08 a2 3f 0f 65 7c 3f
       0.695225 2.2424288 1.265877 0.98591703
000010 aa 87 ec 3f b8 55 b7 3f f6 b9 a9 3f 31 0b 35 3f
       1.8478901 1.4323034 1.3259876 0.707202
000020 7c 71 3b 3f ab ef 4f 3f
       0.7322004 0.8122508

classifier.1.weight f4 [3, 31360]
000000 a1 d9 bf bb 90 09 b3 bc e8 54 34 ba 50 b6 cb bb
       -0.005854801 -0.021855146 -0.0006879107 -0.0062168017
000010 31 a0 6e bb 0c 3b 69 bb bf 83 b4 bc bf 08 4c bc
       -0.00364114 -0.0035588173 -0.022035478 -0.012453257
000020 6f 45 6f bb 5b 2c 81 bc a6 3c c0 3c 6e 2a 1f 3c
       -0.0036509892 -0.01576822 0.02346642 0.009714706
000030 e1 8e 10 3c 7a bc b6 3c 98 6e d5 3b 4d 10 9b 3c
       0.0088231275 0.02230667 0.006513428 0.018928671
000040 cc 15 c2 3a e0 39 76 3a 63 90 34 ba 33 89 06 bb
       0.0014807521 0.00093927793 -0.00068879704 -0.0020528554
000050 db 08 cb 3b 17 99 26 bc 68 50 33 3b 6f 3c c2 b9
       0.006196124 -0.010168335 0.0027361158 -0.0003704759
000060 81 ca 55 3b 74 42 de 3a a7 d3 92 ba 0c 29 c5 3b
       0.0032621922 0.001695706 -0.0011201993 0.006016856
000070 b9 05 eb 3a 36 92 85 3b e9 1b eb 3a c2 12 57 ba
       0.0017930783 0.0040762676 0.0017937395 -0.0008204394
000080 a4 ba 74 3a 88 14 1f bc 5c 2d df bb 1d 2a fa 3b
       0.0009335673 -0.009709485 -0.006810827 0.007634415
000090 f3 94 cb 39 69 97 6c bb 08 31 4e bb 1e 94 8f b8
       0.00038830153 -0.003610099 -0.003146233 -6.84636e-05
0000a0 d2 ab fe b9 71 16 4d bc 57 6f df bc 2e e3 87 ba
       -0.0004857467 -0.0125175575 -0.02727477 -0.0010367387
0000b0 bf 92 09 3a b2 08 67 bc 16 b4 60 bc a3 d2 8e 3b
       0.0005248002 -0.014101194 -0.013714811 0.004358606
0000c0 13 e3 2f bc c3 6f 3d bc eb 6a c3 bb 98 a8 09 bc
       -0.010735291 -0.011562291 -0.0059636733 -0.008402012
0000d0 48 2d 9b 3c 41 aa b3 bb 57 bc c3 3b ff 7e ea bb
       0.01894249 -0.0054829423 0.0059733796 -0.0071562524
0000e0 cf 81 88 bc fe e8 25 bb 3f 5c 28 3b 0d e5 e3 bb
       -0.01666346 -0.0025315876 0.0025689749 -0.006954795
0000f0 f7 17 b6 bb 9e b7 a6 bc 50 0f 20 bc db 7c 1c 3c
       -0.005557056 -0.020351227 -0.009769276 0.009551252
000100 de 35 be 3b 2f ef 94 3c 24 26 05 bb c2 53 6d 3b
       0.0058047613 0.018180458 -0.0020316923 0.0036213254
000110 2c 63 d1 bb 9b e4 39 3b e0 0e 2c 3c 1a c7 2b 3c
       -0.006389996 0.002836502 0.010501593 0.010484481
000120 6b b3 0f bc 88 14 7d bc 0e 96 1d bc aa b3 9d 3b
       -0.008770804 -0.01544679 -0.009618295 0.0048126774
000130 02 6f 11 bb b8 36 ae ba fc cf da b9 26 ae 27 3c
       -0.002219141 -0.0013291454 -0.0004173516 0.010234391
000140 1a 56 34 3c 39 40 b2 ba ca 13 d1 ba 22 d7 08 3c
       0.011006856 -0.0013599462 -0.0015951332 0.008352073
000150 26 1c 0a bb 93 9a 9d 3b 47 ff f8 3b ae f8 e3 3a
       -0.0021073907 0.0048096864 0.007598791 0.0017392838
000160 69 29 88 bb d8 c1 41 bc bc 00 2b bb 4e 94 a9 bc
       -0.004155327 -0.011826001 -0.0026092967 -0.0207006
000170 18 21 87 bc c2 49 56 bc 35 8c 81 bc 2d 74 dd bb
       -0.016495273 -0.013079109 -0.015813926 -0.006758234
000180 2f 02 92 39 5d a0 8b bb 09 ad 5a bb 20 31 a8 b7
       0.00027848917 -0.00426106 -0.0033367297 -2.0050036e-05
000190 28 75 40 bc f3 9f 9a 3c 58 c8 b1 3b 25 2a 53 3c
       -0.011746682 0.018875098 0.005425494 0.012888466
0001a0 5c 31 20 3c 7f cd 92 ba b1 4f e7 bb 8c eb 1e 3c
       0.009777393 -0.0011200159 -0.0070590605 0.009699713
0001b0 d1 03 34 3a f9 69 9d bb 03 f8 37 3b e7 cb b5 bb
       0.0006867024 -0.0048038927 0.002807141 -0.0055479887
0001c0 b4 b0 00 bc a0 32 b3 bc d5 f0 9d 3b af ad b0 3b
       -0.007854629 -0.021874726 0.004819969 0.0053917984
0001d0 8f 21 6f bb e1 2a 9d 3a a3 bd 2a 3a 5b e3 b8 3c
       -0.0036488508 0.0011990928 0.00065132434 0.022569349
0001e0 7a ad 07 3c ef f9 3e 3c a1 99 5b 3c b2 57 a4 3c
       0.008281106 0.0116562685 0.013403327 0.020061348
0001f0 a3 bf 03 3c f5 b8 7b 3b 12 31 42 3c 8b 53 29 bc
       0.008041295 0.0038409804 0.01185252 -0.01033486
000200 cc 7d 82 ba 38 9b 63 39 72 22 11 bc ae c1 91 39
       -0.0009955703 0.0002170623 -0.00885831 0.00027800858
000210 bd 68 1b bc d8 2d 8d bc 91 f9 24 3c a3 d9 50 3c
       -0.009485421 -0.017233774 0.010069267 0.012747201
000220 60 0a 4f bb 1d 15 41 3b c9 76 e3 ba b5 9c 0a 3c
       -0.0031591877 0.0029462047 -0.0017354126 0.008460213
000230 ff c4 01 3c 31 a7 22 b9 59 42 3f bc bc 10 52 3c
       0.007920503 -0.00015511808 -0.011673533 0.012821373
000240 d6 4a 80 3c f3 f3 c0 3a 36 a5 35 bc 16 5b 39 bb
       0.015660685 0.001472114 -0.011086753 -0.0028283051
000250 42 ef 77 ba 8b c7 87 bc d0 4b af bc 31 59 7d bc
       -0.00094579544 -0.016574642 -0.021398455 -0.015463159
000260 da d5 58 bc c4 6d 57 bc 0c 32 2d bb 43 b9 cf b9
       -0.01323458 -0.013148729 -0.0026427535 -0.00039620147
000270 08 7f 92 3a e3 41 de 3b 2c 4e 07 b9 91 75 3d bc
       0.0011176774 0.0067827567 -0.00012903725 -0.011563675
000280 a0 17 30 3c cc 30 03 3c d4 b9 8c bb 01 98 b9 bb
       0.01074782 0.00800724 -0.0042946134 -0.005663872
000290 c6 7a 08 3b 74 20 7b 3b fa 6a a7 39 01 7c 29 3c
       0.0020825132 0.0038318904 0.00031932426 0.010344506
0002a0 59 b5 fc 39 b5 66 87 bb 2d 38 55 3c 16 b2 35 bc
       0.000482003 -0.0041321167 0.013013882 -0.011089822
0002b0 9b 55 1d bc 9e 40 a6 bb d2 cc b4 bb 80 75 68 39
       -0.009602929 -0.005073621 -0.0055175805 0.00022169016
0002c0 1e 57 e1 3b bc 35 57 bb 42 35 41 3c dd ff 9d 3b
       0.0068768403 -0.0032838425 0.011792483 0.004821761
0002d0 19 d3 8a ba a4 17 71 bb 84 92 59 bc ee 8f 92 ba
       -0.0010591476 -0.0036787773 -0.013279561 -0.001118181
0002e0 c1 7e 7e bb 57 28 53 bb 10 4e e4 bb d9 db 67 bc
       -0.0038832875 -0.003222009 -0.0069673136 -0.014151537
0002f0 d9 55 9a 3c 09 a3 05 3c 53 f8 2c bc d3 3e e4 bb
       0.018839763 0.008156546 -0.010557252 -0.006965497
000300 86 3c 91 bb f4 b1 83 3c 3a 06 87 bb f6 79 6c bb
       -0.004432264 0.016076066 -0.0041206153 -0.0036083437
000310 df 00 48 bb ea bb 18 bb ae 84 66 3b be 1d bf 3a
       -0.0030518097 -0.0023305365 0.0035174298 0.0014581007
000320 8b 54 21 3b 97 34 2c bc 5f 5f 5f bc 71 55 96 3c
       0.0024617042 -0.010510585 -0.013633578 0.018351289
000330 fa 43 5e 3c 25 29 d5 bb 5c 68 5d bb d7 16 8a bc
       0.013566012 -0.006505149 -0.0033784127 -0.016856594
000340 e7 b3 91 bc f3 b1 75 bc ef 91 8e bb 12 77 86 bc
       -0.01778598 -0.01499604 -0.0043508927 -0.016414199
000350 9e ee e1 3a e0 72 ee 3b 46 b0 4a bc 82 10 41 3b
       0.0017237251 0.0072768778 -0.012371128 0.0029459302
000360 5f c9 33 ba 40 a7 4a 3c 05 8b 8b 3b e3 9d 35 bc
       -0.0006858315 0.012368977 0.004258516 -0.011085006
000370 e1 3b 42 bc f8 d4 ed b9 45 4d 19 3c 39 e9 a1 bb
       -0.011855097 -0.00045362837 0.009356801 -0.0049411324
000380 4c 8c ae bb e2 92 ab bb 73 56 32 3a 6c bb 3a bc
       -0.0053267833 -0.0052360157 0.0006803043 -0.011397224
000390 82 4d 25 3c 28 3c 28 3c 78 6f 64 3c e8 6c 1b 3c
       0.01008928 0.010268249 0.013942592 0.0094864145
0003a0 5f 90 d9 3b ce 26 1d 3c 75 b0 8c 3c 43 e1 e7 ba
       0.006639525 0.009591771 0.017173985 -0.0017691035
0003b0 ce 2b 5e 3b 20 f8 1d bc 75 fa 1b bc 7f 61 a5 bc
       0.0033900621 -0.009641677 -0.009520163 -0.020188091
0003c0 c4 f4 7d bb a9 53 38 bc d2 25 83 bc b9 e8 b8 bb
       -0.0038750628 -0.011250415 -0.016009245 -0.005642977
0003d0 b6 98 2e 3c b7 f2 49 3c d7 de a9 bb 3a b2 31 bc
       0.010656526 0.012325934 -0.0051840353 -0.010845715
0003e0 83 e3 ee b9 e2 20 78 3b 3a 79 77 bc cf d2 f6 39
       -0.00045564407 0.0037861397 -0.015104586 0.0004707784
0003f0 2f 4d 0c bc 8a d6 02 bb 7c f1 8c bc e7 31 51 bb
       -0.008563324 -0.00199643 -0.017204992 -0.0031920613

classifier.1.bias f4 [3]
000000 43 fe a6 ba 28 32 47 3b 3b 09 b6 bb
       -0.0012740571 0.0030394886 -0.0055552996
